pretrained_models/model3.pt (torch, 620258 bytes, 11 tensors)

conv1.weight f4 [64, 11, 3, 3]
000000 2f c1 9d bc c4 f5 e0 3b f8 44 5d bd 86 97 8c be
       -0.019257156 0.006865235 -0.05402085 -0.27459353
000010 f3 41 82 3d a7 1e fa 3d a0 42 a6 be 0c c4 c9 bd
       0.06360235 0.12212878 -0.32472706 -0.09851846
000020 e8 80 87 3d ae 70 87 bd b0 9c 25 bb e9 18 7e bd
       0.06616384 -0.06613289 -0.0025270395 -0.062035475
000030 df 7e cd 3c 0f c5 51 3b bd 9a 8b 3d 86 0f 08 bd
       0.02508491 0.0032008325 0.06816623 -0.03321793
000040 41 e7 b9 bc e2 13 de 3c 99 51 dc bc 14 42 4b be
       -0.022693278 0.02710909 -0.026894378 -0.19849426
000050 d6 10 85 3b 6a e7 8e 3d 46 d9 ad bc 5e a1 f3 3d
       0.004060845 0.069777325 -0.021221768 0.11896013
000060 ab 2a f7 bd 57 8c 7b be 38 b5 c2 3d 2e 42 f8 bc
       -0.12068685 -0.24565254 0.09507221 -0.030304994
000070 0c 98 bc be 2a af 0f be 8e 05 c9 be 09 34 24 bd
       -0.36834753 -0.14031664 -0.3926205 -0.040088687
000080 38 d5 8f 3d a8 3a 7d be 04 7c 6e 3d aa 63 c0 3d
       0.0702309 -0.24729407 0.05822374 0.093940094
000090 54 6b ed 3d b6 7a f8 3c ef 61 38 3d a4 70 49 bd
       0.11592737 0.03033195 0.04501527 -0.049179688
0000a0 f8 39 63 3d be a7 83 3d d6 f4 56 be 93 85 a8 3d
       0.055475205 0.06428479 -0.20991835 0.08228602
0000b0 2c 01 5f 3d 83 b5 9d 3c ec c4 74 3e 93 18 11 be
       0.054444477 0.01925159 0.23903245 -0.1416953
0000c0 67 0f 92 bd fc 40 3a be dd 17 30 be 6e 4c 53 be
       -0.07131844 -0.18188852 -0.17196603 -0.20634624
0000d0 26 aa 48 3e 48 e4 38 bd 3e 2a fd 3d 32 ed a6 3d
       0.19596156 -0.04513958 0.12361573 0.0815071
0000e0 37 04 29 be 02 91 f7 3b 6c a1 27 3e 58 f2 87 3c
       -0.16505514 0.007555128 0.16370171 0.01659505
0000f0 a8 38 d6 3d f2 bc 57 3e 4e bf 03 3e f9 fb 0c 3e
       0.10460025 0.2106817 0.12865946 0.13767995
000100 8f e2 8f 3e 62 01 3b bd 79 2b 18 be 8c 71 04 bd
       0.28102538 -0.045655616 -0.14860334 -0.03233485
000110 36 5f 4e bd d2 6e 06 ba 75 90 44 3e 9c 2d d9 be
       -0.05038377 -0.0005128208 0.19195731 -0.4241761
000120 84 bb ed 3d b0 aa 9b 3d f3 5e 47 be 90 c4 08 3f
       0.116080314 0.076009154 -0.19469814 0.5342493
000130 18 2a 36 3d a4 49 a5 bd 2d 6b 49 3e 36 cd 66 bd
       0.044473737 -0.080706865 0.1966979 -0.05634805
000140 3e 8e 47 be 22 dd 05 3d 5b 80 87 bd 3c a7 e8 bc
       -0.19487855 0.03268159 -0.06616279 -0.028400056
000150 95 fd 87 bd 1b 03 02 3c a9 2e 36 3c f9 b1 61 3e
       -0.06640164 0.007935311 0.011119523 0.22040547
000160 de c3 7b 3d 0f 74 41 be 43 84 93 bd 43 99 cd 3c
       0.06146609 -0.18891929 -0.07202961 0.025097495
000170 f8 cf 9f bd 18 16 b7 bd 4f 85 eb bc 27 b0 dc bb
       -0.07803339 -0.08939761 -0.02875009 -0.006734866
000180 ef 79 f2 3d 34 48 46 bd 15 e2 15 be 68 a3 9f bc
       0.11839663 -0.048408702 -0.14637025 -0.019487098
000190 29 48 13 3c a8 5e a0 3d 3c 66 80 3c 78 e8 c7 be
       0.008989372 0.07830554 0.01567375 -0.39044547
0001a0 3a a0 0a 3d b2 95 08 bc b3 75 3c bd 2b dd 52 bc
       0.03384421 -0.008336471 -0.046010684 -0.012870113
0001b0 80 2a 06 3e ce 86 a3 3d 08 b8 1d bd ac be 8d 3d
       0.1310215 0.07984696 -0.038505584 0.069211334
0001c0 74 00 f0 3d 7d a0 73 ba 4c c5 63 3d 12 6f bb 3d
       0.117188364 -0.0009293629 0.05560808 0.09152044
0001d0 87 f5 c6 3b a9 1f cf 3b 10 88 25 be 09 49 05 3e
       0.0060717496 0.006320913 -0.16165185 0.13016142
0001e0 36 a2 e7 bd 18 36 93 be 30 3f 38 be 97 07 05 3e
       -0.11310236 -0.28752208 -0.17992854 0.12991177
0001f0 9e f4 a4 be a6 1e 31 be 4c e9 e2 3d df d4 34 bf
       -0.32217878 -0.17296848 0.11079654 -0.70637316
000200 7b c0 9e bd d9 de 88 be 3c 3b db be b1 ae 7d be
       -0.077515565 -0.2673252 -0.4281863 -0.2477367
000210 8e 54 ee 3d 35 4d 7d be 68 26 c4 3d 88 2d a8 bb
       0.11637221 -0.24736483 0.09577638 -0.005132381
000220 aa 66 dc 3c 7e e3 28 bd f3 40 83 3c 97 1d 0a bf
       0.026904423 -0.04123258 0.016022181 -0.539514
000230 37 d5 ca bd 77 b6 48 bc 52 1d 17 3d fd 6d 97 3d
       -0.09903949 -0.012250534 0.036893196 0.073940255
000240 e0 b7 a1 bc da 28 76 3e 06 03 2c be 22 f2 33 3e
       -0.019740999 0.24039021 -0.16798028 0.17572835
000250 a7 8e c5 3d 77 86 f4 3d 23 79 d3 bc 2a 76 0a 3e
       0.096463494 0.1193971 -0.025814598 0.13521639
000260 a2 db b9 3d 50 c8 7d 3c 16 4f 7f 3e 93 c5 36 bd
       0.09075095 0.015489653 0.24932513 -0.044622015
000270 24 03 7a 3e 76 29 72 3e 94 45 1f 3e 41 06 3e bd
       0.2441526 0.23648629 0.15553886 -0.046392683
000280 9a 01 5b 3e 8c d9 84 3b 02 4c 4d bc da ba be 3e
       0.2138733 0.004054254 -0.012530329 0.3725193
000290 22 79 0e be 30 8f 9e 3e 3a 7b 08 3f 24 6e cd 3d
       -0.13913396 0.30968618 0.5331303 0.10030773
0002a0 fb e8 35 bb 43 59 a3 3e 6a ce 89 3d 76 b2 55 be
       -0.0027757275 0.3190404 0.067288235 -0.20868859
0002b0 33 41 33 3e 3c 94 12 3d 34 75 ca 3e 9e 9d dd 3e
       0.1750534 0.0357859 0.39542544 0.43284315
0002c0 3c 15 59 3e 0c 88 79 be e6 cf 30 3d 52 c0 94 bd
       0.21199507 -0.24368304 0.043167017 -0.07263245
0002d0 17 b0 7e 3d 2b cb 38 3e 1c 47 dd 3d bb ea 59 3e
       0.06217965 0.18046252 0.10804579 0.21280949
0002e0 df a0 87 3e 49 73 82 3e 51 b1 54 be 02 98 e1 bc
       0.26489922 0.2547858 -0.20770766 -0.027538303
0002f0 1d e9 be 3d c0 27 c0 bd ec c3 84 3d c9 04 a5 3c
       0.093218066 -0.09382582 0.06482682 0.020143883
000300 41 01 27 3e 50 7e 2e 3c 43 2b ab 3d d8 88 02 bd
       0.16309072 0.010650232 0.08357861 -0.031868786
000310 ac ab e3 3d 80 76 78 bd b8 9f 59 bd b7 09 b0 3d
       0.11116728 -0.060659885 -0.053130835 0.08595603
000320 9c ed 65 be 0c a3 d0 3d 82 bd 2e be 2c bf 40 3d
       -0.22453922 0.10187349 -0.17064479 0.047057316
000330 2c 86 25 3e c7 8d a0 be df 0c ee ba 37 73 60 be
       0.16164464 -0.31358168 -0.0018161795 -0.21918951
000340 9c 90 94 be ff 59 29 be 5b 45 24 3d 17 f5 c1 bc
       -0.29016578 -0.16538237 0.040105205 -0.023676438
000350 43 12 47 bd f2 4e 4b 3d 0f 7f e0 bc c4 1e b6 3d
       -0.0486014 0.049635835 -0.027404336 0.08892587
000360 21 d9 a3 bd 10 79 d8 bd 01 97 ad 3c b9 6e e2 bb
       -0.080003984 -0.10569966 0.021190168 -0.006910172
000370 b5 6e 30 3e ea 11 c0 3d 51 95 17 be 09 16 4c be
       0.17229731 0.09378417 -0.14803053 -0.1993028
000380 c7 cb 00 3d 92 60 b1 bd 7b b6 c1 3d 9b f8 c0 be
       0.031444337 -0.086609975 0.094586335 -0.3768967
000390 00 b7 47 3e ee 1d b2 3d 87 3d 85 3d b0 45 9a 3e
       0.19503403 0.08697115 0.06505876 0.30131292
0003a0 69 6e a6 bd 62 ce 55 3d 9c 0c fe 3d 7a 17 91 bb
       -0.08126528 0.052198775 0.12404749 -0.0044278475
0003b0 14 e5 82 bd b8 a1 8d 3e 38 5c 07 3d 26 ec bd 3d
       -0.063913494 0.27662444 0.03304693 0.09273557
0003c0 2f 9e a4 3c e6 30 79 be c9 d2 10 3b ab 70 80 3d
       0.020094959 -0.2433506 0.0022098294 0.0627149
0003d0 18 c2 20 3e a9 ee 0d bd c7 ad 5f bd 61 ec 4b be
       0.15699041 -0.034651432 -0.054609086 -0.1991439
0003e0 84 b1 8e 3c 94 49 3c 3c ad 39 38 be c9 87 bb 3e
       0.01741863 0.011492152 -0.17990752 0.36627033
0003f0 07 43 22 be c8 0b 15 3e ee 04 28 3e 14 fe 96 3e
       -0.15845881 0.14555275 0.1640813 0.2949072

conv1.bias f4 [64]
000000 7c bd a6 3d c5 0d 89 bc 65 9f b1 bd 85 ca f8 bd
       0.0814161 -0.016730199 -0.0867298 -0.121480025
000010 bd 66 02 bd 9f c5 95 bd 91 11 55 3d af 68 05 bc
       -0.03183626 -0.07313084 0.052018706 -0.008142634
000020 a5 a8 df bc 4f 5c 06 3e 3e 2d 1d be 6d 5c b8 bd
       -0.027302096 0.1312115 -0.1534929 -0.09002004
000030 3f b9 c6 bd 20 33 56 3d 82 a0 0c 38 59 ec 34 3d
       -0.09703302 0.05229485 3.3528086e-05 0.04417071
000040 71 3f 4e 3c 0c eb a9 ba 22 fb b3 bc 57 04 d6 3d
       0.012588368 -0.0012963726 -0.021970335 0.104500465
000050 6b b9 b4 3c ad b2 af bd 81 8c 90 bc 0e e9 74 bd
       0.02206107 -0.085790016 -0.017645122 -0.05979257
000060 d1 fe 11 be c5 e6 ad 3d da 1a af bd 36 f0 2f bd
       -0.14257361 0.084912814 -0.085500434 -0.042953692
000070 18 23 a5 bd 95 75 a8 bd 4d 35 ff bc 25 75 85 bc
       -0.08063334 -0.08225552 -0.031153345 -0.01629121
000080 1d 12 34 bd 47 a2 90 bc 85 fc dc bd 7f 4e 9f bc
       -0.043962587 -0.017655505 -0.10790352 -0.01944661
000090 0e 12 c7 bd 93 2f a2 3b 45 2c d5 bd 12 1a 0b be
       -0.097202405 0.004949519 -0.10408834 -0.13584164
0000a0 81 e2 d0 bc 6f 49 77 bc fa 3e a4 bd 83 08 50 3d
       -0.02549863 -0.0150931915 -0.08019824 0.050789367
0000b0 2d a1 c2 bd 17 52 14 3d 35 4d 06 be 83 08 aa bd
       -0.09503398 0.0362111 -0.1311539 -0.08302405
0000c0 8e 77 a3 3d 1c ba de bd 71 80 7c 3d f3 1d 15 bd
       0.079817876 -0.10875341 0.06164593 -0.036405515
0000d0 ec e5 09 be ba cc a3 bd 82 77 6d bd 05 3e 79 bc
       -0.13466614 -0.07998033 -0.0579753 -0.0152125405
0000e0 2c 37 35 be 0c 10 47 3d f6 db 07 be 40 73 54 bd
       -0.17696828 0.048599288 -0.13267502 -0.051867723
0000f0 c6 82 43 3d fc 48 06 be 15 24 fb bd 4a c7 8d bd
       0.047732137 -0.13113779 -0.122627415 -0.06922777

conv2.weight f4 [64, 64, 3, 3]
000000 09 f1 01 bd 04 46 80 bd cd 92 ce bd 5b a8 26 bd
       -0.03172401 -0.062633544 -0.10086594 -0.0406879
000010 75 b0 2e be 4a 8b 61 be 52 d1 81 3c 3b c0 4e be
       -0.170595 -0.22025791 0.015846882 -0.20190518
000020 cc f2 94 be 1f 6a c0 bb 5b 63 62 bc 06 af 70 be
       -0.2909149 -0.0058720256 -0.0138176335 -0.23504266
000030 14 6d 85 be 7e 36 31 be 02 31 16 be cb c2 a0 bd
       -0.26059783 -0.17305943 -0.14667132 -0.07849654
000040 bb 64 65 3c 75 f6 8a b9 a6 bb ca bc 9e 60 0a bc
       0.014001067 -0.00026505036 -0.02474768 -0.008445887
000050 b5 f2 04 3f 5c 98 9b bd af b5 5f 3d f1 bc 21 3c
       0.5193284 -0.075974196 0.054616626 0.009871707
000060 c7 f0 12 3d 96 53 57 3e da 99 ab 3d 92 a3 e4 bc
       0.035874154 0.21027979 0.08378954 -0.027910028
000070 c0 18 1d 3d d7 f0 26 3d fa 00 90 bd 2c 1f 26 bc
       0.03835368 0.040757027 -0.07031436 -0.010139268
000080 77 bf 01 bd ee 7f 91 bd 0a 93 e1 3c cf b1 df bd
       -0.031676736 -0.07104479 0.027535934 -0.10922586
000090 5b 37 0a be 6e 0d 2d be 4b 85 a2 be 1a 91 00 be
       -0.13497679 -0.16899654 -0.3174232 -0.12555352
0000a0 98 61 16 be 5b 37 4a bc 89 9d aa 3d 0e 58 8e 3d
       -0.14685667 -0.012342299 0.08330829 0.06950389
0000b0 ec c5 ad bc a1 76 4f be 37 20 33 3d 93 08 11 3d
       -0.02121254 -0.20260097 0.043731894 0.035408568
0000c0 fd ae 41 be d2 76 61 be 55 5d ab bd ad c7 e7 bd
       -0.18914409 -0.22017983 -0.08367411 -0.11317382
0000d0 26 1d fb bd 40 c3 2c 3d cb 89 5c 3d ba c0 d9 3d
       -0.12261419 0.042178392 0.053842347 0.10632463
0000e0 6b 96 a2 bd 58 15 18 be 1c cc 87 bd 2f a2 b1 bd
       -0.07938846 -0.14851892 -0.06630728 -0.08673512
0000f0 a9 b1 8e bc 26 2f c8 bb 81 57 fc 3d 57 17 b6 bc
       -0.0174187 -0.006109136 0.123213775 -0.022227926
000100 b2 8d 62 be b4 9b 4e 3e 0c 7c f9 3d ca df d7 3d
       -0.22124365 0.20176584 0.12181863 0.10540731
000110 fd e7 9d 3d aa 30 17 be 29 3c 57 bd 7d 86 15 3e
       0.07710264 -0.14764658 -0.052547608 0.14602084
000120 48 36 30 bb 19 4d f5 bd 62 2f ed 3b 6f 8d cf 3d
       -0.0026887823 -0.11977596 0.0072383145 0.10134398
000130 0f 3e 42 3d 9a fe 41 be 28 7b 21 be 56 e1 fc bd
       0.047422465 -0.18944779 -0.15769637 -0.12347667
000140 7b df 34 be 0c 6b ca 3c 7d e2 84 bd 1b f0 37 bc
       -0.17663376 0.024709247 -0.06488512 -0.011226679
000150 ee 39 6e be c7 f3 00 be 98 d3 76 bd f9 eb 2d 3d
       -0.23264286 -0.12592994 -0.060260385 0.04246137
000160 fd 58 9a 3d 55 97 8e bd a8 a1 9f bd 24 b3 5a be
       0.075365044 -0.06962458 -0.07794505 -0.21357399
000170 2d 10 6d be 51 9d 41 bd f3 89 3a be 32 43 28 bd
       -0.23150702 -0.04726917 -0.18216686 -0.041079707
000180 37 3c 16 be 7c 78 12 be 30 f5 e0 3c 0d 31 35 bd
       -0.14671408 -0.14303774 0.027460665 -0.04423623
000190 c3 47 9d bd b1 e6 68 be f8 70 19 bd ed 54 57 be
       -0.07679703 -0.22744252 -0.03746125 -0.2102849
0001a0 6a 3e 78 be 51 c6 c6 3d 77 f6 27 be d3 3e f8 bc
       -0.24242559 0.097057946 -0.16402613 -0.030303394
0001b0 c2 80 fa bc 99 9c d0 bd 1b e3 74 be dd 78 1b bd
       -0.030578975 -0.10186119 -0.23914759 -0.03795706
0001c0 5f 2b 66 3d f9 1b f9 3c bb 29 07 3e c9 de 81 3d
       0.056193706 0.030408846 0.13199513 0.06341321
0001d0 03 6c ca bd e3 2b 1e be ea fd 3e 3d 92 21 a1 be
       -0.09883883 -0.15446429 0.04662887 -0.31470925
0001e0 90 a2 85 be 99 c9 cc bd 49 07 d9 bc df 6e 02 3e
       -0.26100588 -0.09999389 -0.026492732 0.12737606
0001f0 33 c4 d3 3b 99 a1 31 3d b7 53 bc 3c c8 f8 06 bd
       0.0064625978 0.043367002 0.022989137 -0.0329521
000200 da 97 1c be af ec 8d bd bf bb 7a bc 27 e2 9f 3c
       -0.15292302 -0.069299094 -0.015303551 0.019517018
000210 53 c9 98 bc 31 39 c2 bd e6 fe 8a bd cf ac da bd
       -0.018650686 -0.09483565 -0.06786899 -0.10677492
000220 64 69 9f 3d 30 3a a8 3c 3d 29 18 3d fd 01 98 bc
       0.077837735 0.020535558 0.037148703 -0.018555636
000230 f8 fd 17 bc a6 42 ac bd 0f 29 b1 bc 9e 6a e1 bd
       -0.009276859 -0.0841115 -0.021626024 -0.11006664
000240 7a d3 35 3e d7 ed 04 3e 3b fb 1d bd 07 5d 29 3d
       0.17756453 0.12981354 -0.03856967 0.041348483
000250 54 fa ac 3c fe b5 e0 bc ce 7a e8 bd f2 6b 8e bd
       0.02111546 -0.02743053 -0.11351548 -0.06954183
000260 c5 c2 38 bc 1e 24 d1 bc 25 97 b1 bc 5d 1d 07 3c
       -0.011276905 -0.025529917 -0.021678517 0.008246747
000270 33 fd 26 3c 74 21 a8 3c d7 05 7b bd 18 00 fb bd
       0.010192203 0.020523764 -0.061284866 -0.12255877
000280 cf 67 37 39 c2 46 b3 3b 1e 79 08 be ff d7 e5 bd
       0.00017490912 0.0054710815 -0.13327453 -0.112228386
000290 0e 36 d3 bc d0 21 05 3e d0 da 29 3c 90 a0 14 be
       -0.025782611 0.1300118 0.01036711 -0.14514375
0002a0 d2 ba c3 3d 4d 76 06 3c 7e 7e 28 bd 8d 7e e6 bc
       0.095571175 0.008206916 -0.041136257 -0.028136516
0002b0 3f 80 23 bd e3 1e f4 bd 13 e3 3f be 90 87 02 be
       -0.039917227 -0.11919954 -0.18738966 -0.12747025
0002c0 b5 e4 a2 bd bf 8a 76 3d ca 95 f1 3c 7e 31 d1 bd
       -0.07953779 0.060190912 0.02949037 -0.10214518
0002d0 06 8d 5c bd 12 ab d7 bd 5a a6 29 3e a3 d9 1e 3e
       -0.053845428 -0.10530676 0.16567364 0.1551271
0002e0 14 bb 00 3e e2 28 eb 3d f2 29 e1 bd ea 9f 12 be
       0.12571365 0.11482407 -0.109943286 -0.14318815
0002f0 c9 d3 c6 bd 5c 1f 66 3c e7 82 70 3d 74 7c 6a 3d
       -0.097083636 0.014045563 0.05871859 0.057247594
000300 bf 66 35 3d cc d2 30 3d b0 aa 5a 3d d5 70 86 bc
       0.04428744 0.04316978 0.053385437 -0.016411224
000310 90 f4 80 3c 45 72 4a bc 19 05 55 be 36 a0 d3 bd
       0.015741616 -0.012356346 -0.20802726 -0.10333292
000320 4e ad 1f 3d 6f 31 10 be 0f c2 0b bd 34 d3 2f 3d
       0.038983636 -0.14081357 -0.034120616 0.04292603
000330 3c d9 1d 3e 87 b6 28 3e 7e f5 d4 bb 63 14 19 be
       0.154149 0.16475879 -0.0064989915 -0.14949183
000340 02 a9 52 bd d8 31 91 be 96 7a 82 3d 92 b3 68 bc
       -0.05143071 -0.2835834 0.06371038 -0.014202969
000350 3b a7 ab be 4d 36 54 3d 41 dd 37 3d db fb 3a be
       -0.33526024 0.051809598 0.04488874 -0.18260138
000360 a6 84 1c be 08 af 36 3e fc bd 94 bd 1a 03 40 3d
       -0.15284976 0.17840207 -0.07262799 0.046877958
000370 b0 3d 26 be 37 50 4a 3c aa 02 db bd 82 90 88 ba
       -0.1623447 0.012348226 -0.106938675 -0.0010419043
000380 13 49 2d be f6 18 5f bd b8 23 03 be 48 48 4a 3d
       -0.16922407 -0.054467164 -0.12806594 0.04938534
000390 cd 5a 01 be bb b4 ca bd 79 5e ad bd 96 28 08 3e
       -0.12632294 -0.09897753 -0.08465285 0.13296732
0003a0 ec c2 d3 3d 16 b8 fd bc 50 ea 1b 3d 4d 33 fb bc
       0.10339913 -0.030971568 0.038065255 -0.03066411
0003b0 f3 63 4e be 01 4b 74 bd 72 99 c8 bc 3e 20 26 be
       -0.20155315 -0.05964184 -0.02448723 -0.16223237
0003c0 88 a2 23 bc dd 3b 1c 3d a8 98 48 bd 4b 9b 3e 3c
       -0.009987481 0.038143028 -0.04897371 0.011633704
0003d0 77 4b 7e 3c ea 04 51 3c 4c cd bb 3d f7 48 28 3c
       0.015520922 0.012757519 0.09170017 0.010271302
0003e0 4b 39 21 3e d4 00 7c be 39 d1 d4 bd 68 fe fd bd
       0.15744512 -0.24609691 -0.103914686 -0.1240204
0003f0 7d 63 78 bd 54 56 96 bd b8 9d f5 bd 8c 7f 87 bc
       -0.060641754 -0.073406845 -0.11992973 -0.016540311

conv2.bias f4 [64]
000000 47 4f e3 bd 92 fa 53 bc e0 6f cf bd 9c 21 d2 3c
       -0.11099105 -0.012938159 -0.1012876 0.025650792
000010 89 d4 58 bd 46 05 d8 bd d3 3b d3 3d 4f 81 ce bd
       -0.052937064 -0.10547881 0.10314145 -0.100832574
000020 04 18 b6 bd a2 ec ab bd ea 0d 76 bd 81 e1 30 bd
       -0.08891299 -0.083947435 -0.060071863 -0.043183807
000030 63 8c a6 bd a6 a1 a5 bd 62 86 08 be c3 c2 8a bd
       -0.081322454 -0.080874726 -0.13332513 -0.06775429
000040 cf f2 56 bd 64 47 0f be 70 8a 8f bd b3 4f 29 bd
       -0.052477654 -0.13992077 -0.07008827 -0.041335773
000050 5c f1 ba bc 01 e7 ef bd bb df a0 bd 14 03 9f bd
       -0.022820167 -0.117139824 -0.07855173 -0.07764259
000060 c0 a2 01 bd 67 0b 99 bd 35 69 cb bc 37 ff 5e bd
       -0.03164935 -0.07472878 -0.02483044 -0.05444261
000070 a4 6f 90 bd 06 ba bb bd ca 1e 37 bd 0e 48 1b bd
       -0.07052544 -0.091663405 -0.044707097 -0.037910514
000080 d2 74 a3 bd b9 de dc bd fd a2 82 bc 4e d4 ee bd
       -0.07981266 -0.107846685 -0.01594686 -0.11661588
000090 fc fa 2f bd 6a e9 a6 3c 6d 63 3f bd b8 2c cb bd
       -0.042963967 0.020374972 -0.04672568 -0.09920639
0000a0 bf d4 40 bd 39 8b a3 bd d9 79 a8 bd 33 ea a9 3c
       -0.04707789 -0.07985539 -0.082263656 0.020741558
0000b0 e4 1d 3f bb bc b3 b8 bd 0f 1b f8 bd 8a 34 4f bc
       -0.0029162103 -0.090186566 -0.12114536 -0.012646804
0000c0 da 54 83 bd d5 e9 01 3c 1d 58 92 bd 55 58 4e bd
       -0.064126685 0.007929285 -0.071457125 -0.05037721
0000d0 9b 45 0e 3d dd ee 64 3a fe 21 7f bd e4 70 2d 3d
       0.03473435 0.0008733103 -0.062288277 0.04234399
0000e0 8e a2 91 bd c6 b6 3b 3d 71 f2 be bd 9c e2 98 bc
       -0.07111083 0.045828603 -0.09323586 -0.018662743
0000f0 1a 32 c6 ba 5f c4 86 bd 2d 76 4b bd 93 39 f4 bc
       -0.0015121133 -0.065804236 -0.049673248 -0.02981261

conv3.weight f4 [64, 64, 3, 3]
000000 54 68 74 bb 0d f8 93 bd 1f 36 2b be d7 b1 e0 3c
       -0.003729363 -0.07225046 -0.16719864 0.02742855
000010 99 5a 7e 3d 6c 53 31 3e f0 43 c9 3d 5c 32 fa bb
       0.06209812 0.17316979 0.09827411 -0.007635398
000020 7b f9 ad bb 4d 3a 35 bb 3f f2 24 be 33 1f 96 bd
       -0.0053092814 -0.0027653158 -0.16108035 -0.073301695
000030 fe a9 d1 bd de d9 07 3e 4f 88 3a 3d 98 4d 96 3c
       -0.102375016 0.13266703 0.04554015 0.018347546
000040 cd 0e 99 bd f2 9f 5e bd e5 96 28 3c 49 6a 0c 3e
       -0.07473526 -0.054351754 0.010289882 0.1371242
000050 5a 86 49 bd 6b 9d b2 3d 11 3a ba 3d f1 85 d3 bc
       -0.049200393 0.08721431 0.090931065 -0.025820704
000060 0f 6f d8 bc 8d 38 75 be 16 dd 50 bc d3 ec 0c be
       -0.026420144 -0.23947354 -0.0127480235 -0.13762216
000070 b0 31 98 bd 05 68 c9 3d de 9b 55 bd 4a 3c 34 bd
       -0.07431352 0.09834293 -0.0521506 -0.04400281
000080 0a b5 17 3d bb 62 9d bd a4 cb 3c 3e 9f f0 25 3d
       0.037037887 -0.07684847 0.18437058 0.040512677
000090 30 3d 89 3e e1 12 21 3d 48 52 b7 bd 3d b6 d5 3d
       0.26804495 0.039324645 -0.08951241 0.1043515
0000a0 3b 82 7f bd a5 17 26 be d2 3c 48 bd 14 8c 86 3d
       -0.062380057 -0.16219957 -0.048886128 0.065696865
0000b0 a3 06 07 bd 98 92 8f 3d 69 66 c9 3d 4b fa a4 3d
       -0.032965314 0.070103824 0.09833986 0.08055552
0000c0 2c 28 07 3d ba 09 62 be ed 85 88 be 45 c9 d0 3d
       0.032997295 -0.22074023 -0.26664677 0.10194639
0000d0 c9 53 c6 3d 65 fe 53 bd ab 0d 60 bc 6b 4a 77 3d
       0.096839495 -0.05175628 -0.013675134 0.060373705
0000e0 19 74 d8 3d 42 5d fe 3d 02 b0 52 3e 28 b5 0c 3e
       0.10569019 0.12420131 0.20574954 0.1374098
0000f0 80 13 05 bd d3 33 22 3e 64 15 03 3d 06 00 24 3e
       -0.0324893 0.15840082 0.03200282 0.16015634
000100 ae ce 3d be b1 5e 8c bd 56 4e 09 bc 3c 55 2a be
       -0.18535873 -0.068539985 -0.008380493 -0.16634077
000110 9b b8 b3 bb 45 fc c2 3d 7e 3b 8f bd 13 eb 8e be
       -0.005484653 0.09520773 -0.06993769 -0.27913722
000120 e5 ae cf 3e 81 67 83 bd 0c e2 56 bd df a1 88 bd
       0.4056312 -0.06416226 -0.05246167 -0.066714995
000130 dd 8d a0 3d fe 8a c7 3c 4e 60 a3 bd 9d 92 ad bc
       0.07839558 0.024358269 -0.07977353 -0.021188075
000140 1d 47 22 3e 60 e4 47 3e f3 bf 3a 3e 96 b1 74 bc
       0.1584744 0.19520712 0.18237285 -0.014934918
000150 af 17 25 3d c8 30 3a bd db ce 1c be 73 bb 0e be
       0.04030579 -0.045456678 -0.15313284 -0.13938694
000160 4e bb 16 3e 3b 4c 34 3e f2 e6 28 be b6 78 a4 3b
       0.14719889 0.17607205 -0.16494349 0.0050192727
000170 f9 54 07 3e cf d7 f4 bd 77 e4 3b bc 7b 73 12 3d
       0.13216008 -0.11955225 -0.0114680445 0.035754662
000180 ff b3 c9 3c 00 28 ab 3d 44 0d a0 bd 72 77 ba bb
       0.024621962 0.08357239 -0.0781503 -0.0056905085
000190 a5 31 54 3d d7 e1 67 3d 7a 34 7b bc 52 56 db 3b
       0.051805157 0.056611862 -0.015332336 0.00669364
0001a0 f1 8e 56 3b ca a6 f7 3d 1a 94 ee bc e7 ab c6 3d
       0.0032739008 0.12092359 -0.029123355 0.097007565
0001b0 42 11 3d be 2f 85 48 bd 02 d5 d2 bd ac fc e3 bd
       -0.18463615 -0.04895514 -0.10294534 -0.11132178
0001c0 fa 9d 94 3d bf 06 c0 3d 97 8f 80 be ca b5 1d be
       0.07256694 0.09376287 -0.2510955 -0.15401378
0001d0 cf 47 03 3c a8 8b f6 3c 7f 7b 9b 3d 6d fe af bd
       0.008012726 0.03009589 0.075919144 -0.0859345
0001e0 b2 4d 6c bd 3e 75 2a 3e 28 c1 c7 bd 15 d8 73 bc
       -0.057691284 0.16646287 -0.097536385 -0.014883061
0001f0 ca b2 65 3d e0 8d 69 3d 56 46 cd 3d 02 07 58 bc
       0.05607871 0.05702007 0.10023181 -0.013185265
000200 5b 02 af be ae 56 76 3d 40 60 15 be e1 fb 95 be
       -0.34181485 0.060141258 -0.14587498 -0.2929373
000210 e5 b8 ac 3d f1 df 41 3d e5 df 15 3d 48 bd e3 bb
       0.08433703 0.047332708 0.036590476 -0.0069500543
000220 06 fb 9c bc 7c 6a a0 3c a9 a2 bc 3c cc 8b f2 bc
       -0.019162666 0.019582026 0.023026781 -0.029607676
000230 69 02 6b bd 37 76 36 bd 68 90 a3 3a e4 10 e9 bc
       -0.057375345 -0.044546332 0.001247895 -0.028450437
000240 dd c6 bb 3c d2 89 86 bc 70 64 1d 3d c4 6a 05 bc
       0.022921974 -0.01642314 0.038425863 -0.008143131
000250 1b 22 c3 3c c9 fb 7b 3c a3 c4 33 bc e3 7a 01 3d
       0.023819974 0.0153798545 -0.010972175 0.031611335
000260 36 92 cd 3c e9 28 d2 3c c1 5c e2 bd 05 f0 72 be
       0.025094133 0.025654273 -0.11052848 -0.23724373
000270 f6 15 aa 3b bd 62 4b 3e cd a7 39 3e 85 5a 3b be
       0.005190606 0.19861884 0.18130417 -0.18296249
000280 41 57 03 3c e8 6c 08 bd 31 5d a6 bc e4 89 f4 bc
       0.008016408 -0.033306986 -0.020308109 -0.029850908
000290 78 0a ff 3b ea c0 6c 3c 81 b5 ee 3b 9e b6 33 bc
       0.0077832304 0.014450291 0.0072848205 -0.010968832
0002a0 47 39 84 3c 7e 96 60 bd 43 94 34 bd f9 92 26 3e
       0.016140593 -0.05483102 -0.044086706 0.16267003
0002b0 61 b6 8c 3d 51 c7 76 3d b3 93 1b 3e d7 e1 2e 3d
       0.068707235 0.060248677 0.15193062 0.042695846
0002c0 fc e4 f2 3d 76 04 3e 3d 6d ca 12 3e a1 c5 18 3e
       0.118600816 0.046390973 0.14335032 0.1491914
0002d0 b9 f1 31 3c d9 79 37 bc db 14 da bc 0e 9f 3d bc
       0.010860854 -0.011198484 -0.026621273 -0.011573566
0002e0 ca c9 5b bd 1c bc 90 bc 73 23 1d bb fb d4 2d bd
       -0.053659238 -0.017667823 -0.0023977428 -0.042439442
0002f0 be 02 a0 3b c7 2f 01 bc 6d 72 87 bc 92 18 11 be
       0.0048831394 -0.007884926 -0.016534055 -0.14169529
000300 bb a7 19 be 3d 89 8d 3e 39 23 01 3e ae 4e 55 be
       -0.1500539 0.27643767 0.12611093 -0.20830795
000310 5e d9 f6 3d 51 7f 03 3e 0b ac 8d bd 99 a7 65 3d
       0.12053178 0.12841536 -0.0691758 0.056068037
000320 c1 77 e6 3c 7c 75 7d 3d 39 aa 8b 3c 3c 90 32 3d
       0.028133275 0.06187962 0.017048942 0.043594584
000330 85 b6 98 3d 4f 76 ae bd a4 4b 58 3b 5b 4b 45 3e
       0.07456688 -0.08518659 0.003300407 0.19267027
000340 6e 72 cd 3c 03 c6 e8 bd d4 96 2f bd 14 e5 06 bd
       0.025078978 -0.11365893 -0.04286845 -0.03293331
000350 a6 4c 37 be e8 bf 22 3e 73 cf ef 3d 60 dd 90 bd
       -0.17900333 0.15893519 0.1170949 -0.07073474
000360 9b 17 a4 bb 9b 75 a5 bd 96 a2 8d bd 3c 88 fa bd
       -0.005007697 -0.08079072 -0.069157764 -0.12233016
000370 21 83 f6 3c 07 73 a8 3d b0 7e b9 3d 2e 2c 29 be
       0.030091824 0.08225065 0.09057367 -0.1652076
000380 7d fd 0b be 83 3b 73 3d 9f df 7a 3d db e2 a9 3d
       -0.13670917 0.059382927 0.061248418 0.08295222
000390 30 86 d0 3d 1f 6a 95 bd db c6 6e be b1 f2 a8 3c
       0.10181844 -0.072956316 -0.23318045 0.020623537
0003a0 07 90 88 bd 31 f4 51 be 43 76 79 3e a6 0d 03 be
       -0.06668096 -0.20503308 0.2436152 -0.12798175
0003b0 0e f1 f7 bc 3e 27 74 3d 40 c3 08 bd a3 2d c3 bd
       -0.030266311 0.059607737 -0.03338933 -0.09530189
0003c0 49 c6 b9 3c b2 93 17 be de c2 27 be d2 a0 69 bc
       0.022677558 -0.14802435 -0.1638293 -0.014259534
0003d0 42 8a 0d 3d b9 b4 76 3c 17 0f 3d 3b 34 ef a8 bc
       0.03455568 0.015057736 0.0028848106 -0.020621873
0003e0 7a 80 a7 3c 18 aa de 3c c3 e9 ef bc 3b 49 1d 3d
       0.020447005 0.027180716 -0.029286271 0.038399916
0003f0 b9 15 12 be 5d 95 aa bd 26 28 97 3d ad 77 0d bc
       -0.14266099 -0.0832927 0.073807046 -0.00863449

conv3.bias f4 [64]
000000 f3 00 fe 3c 00 6d 71 bd cb 7e 38 bd 63 81 d7 bd
       0.031006312 -0.05894184 -0.045042794 -0.105227254
000010 a8 2e a3 3d 91 ca ae 3d fa 57 ec bc ea 4b 76 bd
       0.07967883 0.0853473 -0.028850544 -0.06013099
000020 5a 3c 2a bd a1 a9 05 bd 9f f5 e8 bd dd 44 2c bd
       -0.041561462 -0.032632474 -0.113749735 -0.04205786
000030 a7 f1 5f bc 45 9a 2e bd 0b 81 59 ba a4 8a 45 bd
       -0.013668454 -0.04262759 -0.0008297122 -0.04822792
000040 23 fc a0 bd dc e5 5f bd 9e 35 e1 bd d1 63 8d bd
       -0.07860591 -0.05466257 -0.10996555 -0.06903804
000050 cf 77 10 be 34 1b 29 be 57 30 6a bd 72 15 d4 bd
       -0.14108203 -0.16514283 -0.057175007 -0.10355653
000060 ac 5e 15 be 32 32 be bd 7c a1 ba bd 89 df 30 bd
       -0.14586896 -0.09286918 -0.09112832 -0.04318193
000070 80 2c e1 bd 68 7e 42 bd 74 11 dc bd 16 33 9f bd
       -0.10994816 -0.04748383 -0.107455164 -0.07773416
000080 0d 6c e2 3b 31 38 f5 bd fc 73 c2 bd ba 77 dc 3a
       0.0069098533 -0.11973608 -0.094947785 0.0016820349
000090 db 1a c8 3d c5 35 3d bd 77 92 b1 3d 10 fe 86 bd
       0.09770747 -0.046193857 0.08670514 -0.06591427
0000a0 a2 16 33 bd 2f e0 a7 bd 3d 12 91 bd 90 7f ff 3c
       -0.043722756 -0.081970565 -0.07083557 0.031188756
0000b0 d6 2b 97 bc 87 09 1f 3d 67 33 9c bc 11 57 c9 bc
       -0.01845352 0.038827445 -0.01906748 -0.02457765
0000c0 d9 84 1b bd a7 30 0e bd 62 dd a5 bd 61 c5 69 be
       -0.03796849 -0.034714367 -0.08098866 -0.228292
0000d0 9e 47 08 bd ed 48 5a bc dd ab da bd c7 cf b6 bd
       -0.033271424 -0.013323051 -0.106773116 -0.08926349
0000e0 6a 2b c1 bc 3d 04 12 bd 91 95 87 bd 01 be e3 bd
       -0.023580272 -0.035648573 -0.066203244 -0.11120225
0000f0 68 25 f1 bd 57 e0 5e bd ab 57 a5 bd 6f c2 43 bd
       -0.11774713 -0.054413166 -0.08073362 -0.04779285

conv4.weight f4 [64, 64, 3, 3]
000000 55 41 00 be 69 cc ba bc ef d9 a7 bc 36 25 0a bd
       -0.12524922 -0.022802548 -0.020489661 -0.033726893
000010 2c 59 1a bd d8 c3 9b 3b 10 c8 99 bd 03 5e a0 bc
       -0.037682697 0.004753571 -0.07508862 -0.019576078
000020 16 75 b8 bc e4 db 02 3d 21 8a d1 3c 38 a9 8d bc
       -0.022516768 0.031947985 0.02557856 -0.017292604
000030 5b 28 9d bc 96 c1 a8 3b df 85 98 bc f0 29 2e 3c
       -0.019184282 0.0051500304 -0.018618522 0.010630116
000040 70 7b 94 3c 21 9e f1 bc 4b ff 4e bd af 0c b6 bb
       0.018125266 -0.029494347 -0.050536435 -0.005555711
000050 43 07 8b bc 13 74 31 bd c7 1e 0c bd 28 84 a4 bc
       -0.016971236 -0.043323588 -0.03420904 -0.020082548
000060 fa 3e 72 bd 73 10 42 3d 17 30 e2 bc 90 c6 a9 bb
       -0.05914209 0.04737897 -0.027610822 -0.005181141
000070 a2 b7 cd bc 0a 54 c2 bc 7c 1b b5 3c 50 54 aa bc
       -0.025111977 -0.023721714 0.022107832 -0.020792156
000080 b7 a2 15 bd 26 86 73 ba 8d af 49 bd 59 90 23 bc
       -0.03653213 -0.0009289704 -0.049239684 -0.009983146
000090 09 f6 6b bd fb 03 ee bd db 88 01 be da ec 89 3b
       -0.057607684 -0.11621853 -0.12649862 0.004209143
0000a0 18 0f 71 bd eb fe 11 bc ff 09 c5 bd 15 cb 72 bd
       -0.058852285 -0.008910875 -0.09621047 -0.059275705
0000b0 45 ab 9d bc 1a ef 29 be d1 c0 6b bd 7b 88 00 be
       -0.019246707 -0.16595116 -0.05755693 -0.12552063
0000c0 03 ef bd bd 14 11 8c bd 6f 57 8e bd a1 17 bb 3c
       -0.092741035 -0.06839195 -0.069502704 0.022838416
0000d0 37 be 02 3e de d6 a2 bd ba 7a 08 bd 7d 0e 42 bc
       0.12767874 -0.07951139 -0.033320166 -0.011844275
0000e0 e9 dd 37 bd 97 83 99 bd 89 e1 c6 bc 1f 3a 18 bd
       -0.044889364 -0.07495802 -0.024277465 -0.037164804
0000f0 33 97 77 bd 4b 5d 9a 3b b1 12 73 bd 92 18 f8 3b
       -0.06044693 0.0047108284 -0.059343997 0.0075712884
000100 c8 c9 06 3c 3c 3c 72 bb b7 a0 c6 3c 32 b7 f2 bc
       0.008226819 -0.0036962172 0.024246557 -0.02962837
000110 dc eb eb 3c 8a 38 c9 3c f2 3d f4 3b 6a e8 b0 3c
       0.02879899 0.024563093 0.0074536735 0.021595199
000120 fc d6 1a bc 8f 86 92 bd 42 f3 a9 3c a2 86 87 bd
       -0.00945067 -0.07154571 0.020745877 -0.06617476
000130 69 a4 80 bd 76 99 d4 bc 0f 37 9f bc a6 85 79 bd
       -0.06281359 -0.025952082 -0.019435434 -0.060918473
000140 19 83 1b bd 80 51 03 bd b8 72 12 3d ab c9 77 3c
       -0.03796682 -0.032060146 0.035753936 0.015123765
000150 56 0f fb 3c 80 54 72 bb 5b 50 02 3d 20 fc 94 bc
       0.030646961 -0.0036976635 0.031814914 -0.018186629
000160 b3 a9 c9 bc 53 4c 04 3d b9 3c 9a bc fd 2e b0 bc
       -0.024617052 0.03229935 -0.018827783 -0.02150678
000170 59 66 89 bc 00 3f 07 bd 70 e3 35 3c 77 5c 22 3c
       -0.016772436 -0.033019066 0.011101589 0.009909741
000180 eb 78 8f bd a7 1b 79 bd 21 54 cb 3b e4 72 c1 3a
       -0.07005485 -0.060817387 0.0062050973 0.0014758972
000190 af f4 1a bd f0 de 47 bd 28 99 62 bc c5 2e 2e 3c
       -0.037831005 -0.048796594 -0.013830461 0.010631268
0001a0 69 72 e8 3b 4d f4 97 3c e2 d2 8a 3c 84 79 44 3c
       0.007093717 0.018549109 0.01694626 0.011991862
0001b0 96 1b db 3a 7b 5f 84 bc 86 06 f4 3c c7 81 f3 3c
       0.0016716595 -0.01615881 0.029788267 0.029724969
0001c0 79 b3 fb 3c 4e 22 68 bb 41 de 60 bc 87 6f c4 bc
       0.030725228 -0.0035420838 -0.013724864 -0.023978962
0001d0 e0 44 94 3b 63 e3 24 bc d5 dd af bc a1 99 33 bd
       0.004524812 -0.010063979 -0.021468082 -0.043847684
0001e0 a4 a9 04 bd 9f 2a 03 bd 34 72 e6 3c 10 18 56 3a
       -0.032388344 -0.03202307 0.028130628 0.0008167038
0001f0 3e 07 7b bd 44 21 11 be 68 ab 89 3c 2f 41 05 bd
       -0.061286204 -0.14172846 0.016805366 -0.032532867
000200 a4 db 0e be 07 c7 8c bd df dc d6 bd e0 d7 b4 bd
       -0.13950974 -0.06873899 -0.104913466 -0.088302374
000210 fe 36 d4 bd 5c 11 2b bb b1 80 f1 bd d9 e6 e8 bc
       -0.103620514 -0.0026102876 -0.11792124 -0.02843039
000220 a1 e1 db 3c 5e c6 30 bc 69 e7 30 bb 1a ad 01 bd
       0.026840987 -0.010789482 -0.00269934 -0.031659223
000230 f5 2c 99 bc 56 72 34 bd a9 13 ce 3c be 0f bc 3c
       -0.018698195 -0.04405435 0.025155859 0.022956725
000240 27 31 c5 bd a8 a7 88 bd 78 dd 21 bd 39 e8 02 3b
       -0.09628516 -0.06672603 -0.03951785 0.0019974841
000250 d6 4e f0 bc 69 35 75 bd 69 aa 33 bd ad af 4a bd
       -0.029334467 -0.05986539 -0.043863688 -0.049483944
000260 c5 9d 6d bd 88 28 c9 bd 89 c9 cb bd bf 8c c7 bd
       -0.05801179 -0.09822184 -0.09950549 -0.09743642
000270 e3 09 13 bd 59 ea 03 be b2 17 e3 bd 2f d4 ac 3d
       -0.0358981 -0.12882365 -0.11088504 0.08438908
000280 e6 b4 b6 3a f9 ad 6a 3b 2e 01 08 3d 1a 78 b3 3a
       0.001393941 0.0035809262 0.03320425 0.0013692409
000290 f0 2d 28 bd 19 d2 b9 bc b0 48 73 bd 1d e9 2f bd
       -0.041059434 -0.02268319 -0.059395492 -0.042946924
0002a0 93 7f 6f 3c fd a6 79 3c 8b 71 61 bd 3e 14 fb bb
       0.014617818 0.015237567 -0.055039924 -0.007662325
0002b0 a5 54 46 bc 37 4d ca bc fe b3 67 bd 1c 95 3c bb
       -0.012105142 -0.024695022 -0.05656814 -0.00287754
0002c0 94 15 ad b6 4f 0a d1 bd d5 bf 17 bd b9 03 8e bd
       -5.158314e-06 -0.10207044 -0.03704818 -0.06934304
0002d0 13 bf 04 3d 44 65 de bb 9c 2a 10 bd f7 43 bd bc
       0.032408785 -0.006786974 -0.035196885 -0.023103697
0002e0 77 35 e5 3c 49 c0 5f bd 68 92 ae bc 1f 81 da bd
       0.027979596 -0.054626737 -0.021310046 -0.10669159
0002f0 5e cc af bc 93 e0 b7 bc 9d 04 1e bc 28 36 c8 bc
       -0.021459755 -0.022445953 -0.009644655 -0.024439886
000300 be 16 a4 bc 33 1e 8e 3c bf f6 86 bd b7 69 e1 3c
       -0.020030376 0.017348384 -0.06590032 0.02751623
000310 0a 0d d4 bc 6e ff dd 3a a8 95 36 bd a3 3c 91 3c
       -0.025885124 0.0016937086 -0.044576317 0.01772911
000320 47 b7 0f bd 95 74 61 bd d7 54 85 bd 5a c8 95 bd
       -0.035086896 -0.055042822 -0.065103225 -0.07313605
000330 c8 93 09 be f9 c3 dd bd 93 30 d5 bd 2a 91 c2 3c
       -0.1343528 -0.108283944 -0.104096554 0.02375086
000340 3f 00 24 bd f6 f3 12 bd b9 9a d4 bd d9 ce f5 3b
       -0.040039297 -0.03587719 -0.103810735 0.007501465
000350 01 70 ed bc 54 11 93 bc 3c ae 3d 3c b6 ac cf bd
       -0.028984072 -0.017952599 0.011577185 -0.10140364
000360 bf 22 c5 3c d3 93 2b 3c b9 bc 94 3c 28 42 2e bc
       0.02406442 0.010472256 0.018156396 -0.01063589
000370 9f 1e 20 3d 8b 15 39 3c 65 3c 9b bd 1a 5b 80 bd
       0.039091703 0.01129664 -0.07579879 -0.06267376
000380 35 40 d1 bc 80 63 0a bc a0 1a cc bc 1d 69 ae bc
       -0.025543312 -0.008446574 -0.02491504 -0.021290356
000390 bc fd c6 bc e3 88 c8 3c 4d c9 31 3c 36 46 1a bd
       -0.024290912 0.024479335 0.0108512165 -0.037664615
0003a0 ad df e6 bc 35 01 04 bc e0 1e b8 bb ab a2 35 3a
       -0.028182829 -0.008056928 -0.005618915 0.00069288415
0003b0 2b 46 ff 3b 40 cd 0d 3d 2f b4 89 3b 36 81 1a 3d
       0.007790347 0.03461957 0.0042023878 0.03772088
0003c0 20 ac 71 3c 0e 61 4a 3a 36 4a 85 3c 14 b7 06 bd
       0.01475051 0.0007720151 0.016270738 -0.03288944
0003d0 75 ea a9 3c 79 5c c1 bc a1 56 bf ba 3b 63 96 3c
       0.02074168 -0.023603665 -0.0014597961 0.018357864
0003e0 12 69 fd 3c b6 d0 bb bc 2c 38 ca bc 27 8c 31 bc
       0.03093389 -0.02292667 -0.024684988 -0.010836638
0003f0 28 c4 13 bd 08 f0 33 bd 4b 6e 46 bc cc 76 3f 3c
       -0.03607574 -0.043930084 -0.012111257 0.011686038

conv4.bias f4 [64]
000000 17 17 e1 bc b0 8e 48 bc 11 b8 29 be 20 55 d6 bc
       -0.02747683 -0.012241051 -0.16574122 -0.026163638
000010 8c d2 38 bc 92 66 0d be ce 60 75 bd d0 46 83 bd
       -0.011280667 -0.13808659 -0.059906773 -0.06409991
000020 76 14 a0 bc d6 bd 6d bd 08 44 9c bd b2 a3 46 bd
       -0.019541007 -0.05804237 -0.076301634 -0.048495956
000030 8c e4 2a bd 0d 55 9a bd 27 2f 9a bd 44 0c 00 bc
       -0.041721866 -0.075357534 -0.07528525 -0.007815424
000040 85 38 39 bd 99 b7 c8 bc e7 54 20 bd 06 ae 44 bd
       -0.045219917 -0.024501609 -0.03914347 -0.048017524
000050 a7 2a dd bc 31 f7 ef bc f1 3c 91 bc 5a a8 90 bd
       -0.026997877 -0.029292675 -0.017729254 -0.070633605
000060 fb f9 2c 3d 6e b1 6f bc 9d 0c 14 3d a7 a7 83 3c
       0.042230587 -0.014629705 0.03614484 0.016071154
000070 0f ed 43 bc bf 60 56 bd 2b 0c 83 bd d5 b8 7f bd
       -0.011958375 -0.052338358 -0.06398805 -0.06243213
000080 a6 4c 83 bd eb 15 d4 bd 46 18 96 bd 1d df 8d bd
       -0.06411104 -0.10355743 -0.073288485 -0.06927321
000090 72 9e b2 bc 73 f9 b0 bd 20 d0 06 bd 4f 2f 51 bd
       -0.021804068 -0.08641329 -0.032913327 -0.051070508
0000a0 a1 53 19 be 63 c2 48 3c 3a b9 4c 3c 52 a6 f5 bc
       -0.14973308 0.012253377 0.012495333 -0.029986534
0000b0 ef 86 21 bd ad 3a cc bd 35 9a 96 bd e4 21 4a bd
       -0.039435323 -0.09972129 -0.073536314 -0.049348727
0000c0 cf 5c d2 bc e9 0c 0a be 85 cf 12 be 3f 46 03 3d
       -0.02567902 -0.13481487 -0.14336975 0.032049414
0000d0 12 b8 96 3d eb b9 af bc ca 1b a8 bd 79 6c 15 3d
       0.073593274 -0.021450957 -0.08208425 0.0364804
0000e0 4e a0 e7 bd 8f 8f 23 bd c1 60 4d 3b b5 14 ac bd
       -0.113098726 -0.03993183 0.0031338187 -0.08402387
0000f0 30 12 9d bd b7 4a 56 3a b8 05 fa bd d9 94 ba bc
       -0.076694846 0.00081745855 -0.12208122 -0.022776054

conv5.weight f4 [64, 64, 3, 3]
000000 90 82 a1 3c f4 1b fa bc a9 4c 82 bb e6 dc e0 3c
       0.019715577 -0.030530907 -0.0039764238 0.027449083
000010 f2 d3 aa 3c 15 26 33 3c fe 09 c3 3c 07 29 c6 bc
       0.020853017 0.010934372 0.023808476 -0.024189485
000020 52 13 5e 3c 21 9f 12 3d 37 23 8f 3c 3e 20 18 bd
       0.013554411 0.03579629 0.017472846 -0.037140124
000030 7d 53 0b bd a8 2e 26 3c 5f 38 06 3c 40 e2 46 3c
       -0.034015168 0.01014296 0.008192151 0.012138903
000040 56 fd 08 bd 6a b5 82 39 e8 6e 35 bc bb bc d8 bc
       -0.033444725 0.00024930696 -0.011073805 -0.026457181
000050 28 7c 40 bd ca 7e 10 3d 48 6f 78 3c d6 b0 0e bd
       -0.046993405 0.035277165 0.01516325 -0.034836613
000060 77 81 a1 3c 5d ad aa 3c a1 63 3f bb 36 a4 a8 3c
       0.019715054 0.02083462 -0.002920367 0.020586114
000070 ed 11 6e bd b8 24 db bb de 57 1a bc 1a aa 4b bd
       -0.058122564 -0.006687727 -0.009420363 -0.04972277
000080 ad 98 46 bb ee dd 09 bd 14 e7 00 bb 1d e3 8d 3b
       -0.0030303404 -0.033658914 -0.0019668983 0.0043300525
000090 87 0f 80 bb ef cb 62 3c e8 46 06 3d 92 6a 98 3c
       -0.003908101 0.013842567 0.032782465 0.018605504
0000a0 13 fd 98 3c 17 1e 21 b9 75 56 81 3c 39 7f 49 bc
       0.018675363 -0.00015365366 0.015788296 -0.012298399
0000b0 3b fd 67 3c 51 8b 1c 3c 65 33 09 3b 56 c4 4c bd
       0.014159496 0.0095547 0.0020935175 -0.049991928
0000c0 85 b1 54 bd c0 2f 44 bd 97 90 4a bd 4f 30 01 3c
       -0.05192711 -0.0478971 -0.049454298 0.007885053
0000d0 64 bc 08 bd 08 b3 4d 3c 44 89 8e 3c e9 d9 d5 bc
       -0.03338279 0.012554891 0.017399438 -0.026104884
0000e0 4a 9e c1 bc e4 df 22 bd c0 33 d2 3b ac d9 f7 3c
       -0.023635048 -0.0397643 0.0064148605 0.030255161
0000f0 aa 22 80 3c ac de f6 3c 59 3c 85 3c 4d 0e af bb
       0.01564153 0.030135475 0.016264128 -0.005342281
000100 ec 0d 01 3d 3c e2 ff 3c 59 a8 70 3c 16 cf 2b 3c
       0.031507418 0.031235807 0.014688575 0.010486385
000110 0b 82 55 bc 9b e0 11 bd 1f 72 b6 bc d0 f1 2c 3c
       -0.013031493 -0.03561459 -0.022271214 0.0105556995
000120 00 51 47 bc a7 9a 6f bd e2 ec 8e bd 01 5f 25 bd
       -0.012165308 -0.058497097 -0.069787756 -0.040373806
000130 fc 27 81 bd 26 cb bd bc 3f cb 3b 3c f4 bf bc bc
       -0.063064545 -0.023168158 0.011462032 -0.02304075
000140 58 38 18 bd 8f f5 b0 3b bd 38 91 ba 06 ae 08 bd
       -0.03716311 0.0054003666 -0.0011079531 -0.033369087
000150 88 59 04 bd 96 4d e7 bc 1a 03 b8 3c 81 6a 26 3d
       -0.032311946 -0.028235238 0.022462416 0.040628914
000160 85 2a 77 bc 84 76 13 3d 36 fb 57 bc 7d 41 50 3c
       -0.015085821 0.036001697 -0.013182452 0.012710926
000170 1d de 26 bd 92 be 11 3b 2f 9a 7c bb a6 5e 3e bd
       -0.040739167 0.0022238833 -0.003854405 -0.046476983
000180 4e da 49 bc ec 56 00 bd ee 10 b1 3b 67 19 1f 3c
       -0.012320114 -0.031332895 0.0054036295 0.009710646
000190 32 0b 14 bd da 12 14 3d 3f 2b 1f bd 52 b7 18 bd
       -0.03614349 0.03615079 -0.038859602 -0.037284203
0001a0 76 dc 6a 3c 8b fc 96 bc ba 00 bf bb 10 26 8d b6
       0.014334789 -0.018430969 -0.005828944 -4.2065585e-06
0001b0 d2 a0 c2 bb ac da e6 bc 53 d3 1f bb 02 c8 21 bd
       -0.0059395814 -0.028180443 -0.0024387434 -0.039497383
0001c0 4e 92 11 bd 24 04 7a 3c 97 84 26 bd a2 6d 1a 3d
       -0.035539918 0.015259776 -0.04065379 0.03770221
0001d0 cd c2 be 3b 0c c3 93 bc 74 25 b9 bc 21 dd d0 bc
       0.005821562 -0.018037342 -0.022600867 -0.025496067
0001e0 1d 4d 60 3c 9e e8 ac 3c 2e e4 0e 3d e7 ad e6 bc
       0.01369026 0.021107014 0.034885578 -0.028159095
0001f0 fb 00 ce 3c a3 61 f2 3b d2 d2 60 bc 2b 5f 2e bd
       0.025146952 0.007396893 -0.0137221385 -0.042571228
000200 60 d4 0f bd e5 2d 22 bb d2 03 8f bc 0d 38 ee bc
       -0.035114646 -0.0024746594 -0.017457876 -0.029079461
000210 26 6b 47 3c da df a9 3c 39 d2 04 bd ef 17 ad bc
       0.012171542 0.020736624 -0.032427046 -0.021129576
000220 8e a9 2e bd 8d fc c9 bc 31 2c 26 bc 24 fb a8 bc
       -0.04264217 -0.024656558 -0.010142372 -0.020627566
000230 02 0d b0 3c 4e c9 93 3c f3 d1 5d bd be 0f 3a bd
       0.021490578 0.018040325 -0.0541553 -0.04542517
000240 61 53 cd 3c 2d f3 42 3d 2a c5 57 3c 60 15 74 bc
       0.025064172 0.04759519 0.013169566 -0.014897674
000250 41 2d 59 3c 56 7f a0 bc e3 c6 e9 bc 5e b9 6e bc
       0.013255418 -0.019591969 -0.02853722 -0.014570562
000260 d9 ba d3 3c 95 91 dd 3b 68 b4 b2 bb e6 59 f3 3c
       0.025845932 0.0067617395 -0.005453635 0.029705953
000270 db db 03 bd be 40 a5 bb 23 a4 2b bd 1b d1 d7 3b
       -0.032192092 -0.0050431183 -0.04190458 0.0065862066
000280 4a 0e 93 bc 63 59 2d bc bc 87 d0 3c 21 1e 30 3d
       -0.01795115 -0.0105803935 0.025455348 0.042997483
000290 1a d5 0d bd a4 b5 25 bd 88 86 1d bd bc 60 73 bc
       -0.034627058 -0.04045643 -0.038458377 -0.014854606
0002a0 5a 30 68 3c 70 1e 0e bc 28 46 cd bc 7b 38 81 3b
       0.014171684 -0.008674249 -0.025057867 0.0039435006
0002b0 77 47 80 3c 1c e5 ad 3c 75 68 ce 3c 56 2f 97 bc
       0.015659077 0.021227412 0.025196293 -0.018455189
0002c0 de 34 5c 3c cd 7c bb 3c 70 12 22 bd 5e 02 bd 3b
       0.013440339 0.022886658 -0.039568365 0.0057681045
0002d0 10 f6 31 3d 00 0d c0 bc 54 ac dd bc 4f 69 8b 3c
       0.043447554 -0.023443699 -0.027059712 0.017017988
0002e0 25 38 5e 3c 34 7e 3f 3b 64 6b 31 bc 31 a9 88 3b
       0.013563191 0.002921951 -0.010828827 0.00417056
0002f0 95 4b d8 b7 17 e6 2a 3b 0c 0e 22 bd 22 b2 2c bd
       -2.5784402e-05 0.0026077086 -0.039564177 -0.04216207
000300 bb 34 33 bd b0 1a df bb 9c 92 dd bc ab 11 20 3c
       -0.04375146 -0.0068086013 -0.027047448 0.009769837
000310 f1 0c 46 bd f0 85 24 bd 26 c6 9f bd c3 69 26 bc
       -0.048352186 -0.040166795 -0.07801466 -0.0101570515
000320 38 f4 84 bc a9 34 20 bd f7 07 8a bc f9 3f 8a bc
       -0.016229734 -0.03911272 -0.016849501 -0.016876208
000330 54 5c 8c bd 93 30 12 3d c8 ff 9e ba f3 9f ba 3a
       -0.06853548 0.035690855 -0.0012130672 0.0014238342
000340 76 c0 ca 3c 24 1d 68 bd 35 e5 09 3d 84 9e 58 3c
       0.024749976 -0.056668416 0.033665854 0.013221387
000350 16 05 e6 bc 6c 6d 7e 3c b2 ad be bb 40 6c 1d bb
       -0.028078597 0.015529018 -0.005819046 -0.002402082
000360 e8 82 42 bd a8 c6 34 bd 34 e2 ec 3c 13 6c 4d 3c
       -0.047488123 -0.044134766 0.028916456 0.012537974
000370 8a 2c 2e bc dc ba c8 3c 8f f3 8c bc d7 c8 80 bc
       -0.010630736 0.024503164 -0.017205982 -0.015720768
000380 dd 32 2a bd 31 db 26 3d fc 1d 3d bc 6f f2 18 bc
       -0.041552413 0.04073638 -0.011542793 -0.009335144
000390 ea e5 54 3c 0d 15 09 bd b8 ff 6b bb 10 d7 53 3b
       0.012994269 -0.03346734 -0.0036010575 0.0032324232
0003a0 b0 de c4 3c 35 c7 e5 bc ab 7b fd bb 3d 36 f6 bb
       0.024031967 -0.02804909 -0.0077356896 -0.00751379
0003b0 12 16 f6 3b e7 e3 c0 3c 9f bb 90 3b 16 0c ce 3c
       0.007509955 0.023546172 0.0044168974 0.025152247
0003c0 84 8c ba bb 0c 7b a6 3b a0 4d 1b 3c b4 4c 5d bd
       -0.0056930203 0.0050805863 0.009478956 -0.054028228
0003d0 57 ff 8f bd c3 52 68 bd 16 11 4c 3c d9 ea 3b 3c
       -0.07031124 -0.056719553 0.0124552455 0.011469566
0003e0 98 44 85 3b 17 2e 9f bc 13 63 34 bd 3b ed 4b bd
       0.004067015 -0.019431157 -0.044039797 -0.049786787
0003f0 02 b0 c9 3c 86 20 9c 3c 12 ed 12 bd 9e 1a c6 3c
       0.02462006 0.019058477 -0.03587062 0.024182614

conv5.bias f4 [64]
000000 2f 3c 9b bb 00 05 8f 3c 7d 28 ac bd 99 c5 bb 3c
       -0.004737399 0.017458439 -0.0840616 0.02292137
000010 88 15 99 3a 7c 38 c4 bd e2 e0 a8 bb d4 3d 00 3c
       0.001167939 -0.09581086 -0.0051537612 0.007827241
000020 05 42 20 be ee af a0 bb 9f 8c 78 bb 4b cd dd bb
       -0.15650184 -0.004903785 -0.0037925614 -0.0067688576
000030 5b a5 eb bb 8c 23 cc bc b9 4b fa 3c 4a 30 e1 bc
       -0.007191343 -0.024919294 0.030553686 -0.027488846
000040 52 22 39 bd 6e 71 38 bd 8b 0a 3f 3c 6c fd 44 bd
       -0.045198746 -0.04503005 0.0116602285 -0.048093244
000050 71 5a 51 3c 30 49 27 be 9a 28 06 bd 2e 1e 7a bd
       0.012777911 -0.16336513 -0.032753564 -0.061063938
000060 f3 b7 1a bd d6 44 8d 3c 55 b5 54 3c 22 53 56 3c
       -0.037773084 0.017244738 0.012982686 0.013081344
000070 8b db 6a bd 19 cd 8e bd d5 63 77 3c 63 01 d0 bb
       -0.05733828 -0.06972713 0.015099485 -0.0063478216
000080 ae d2 90 bd 8d 86 a2 bd c4 e6 74 bd 2c b8 1c bc
       -0.07071434 -0.0793582 -0.059790388 -0.009565394
000090 d3 99 42 3e d9 49 40 bd 80 57 c1 3c 72 25 e9 bb
       0.19003992 -0.046945427 0.023601294 -0.0071150595
0000a0 34 bd 9e bd 53 4b a1 3b 78 e6 8a bd 6e 4a 65 bd
       -0.077509314 0.0049223094 -0.0678224 -0.055979185
0000b0 1b 91 85 bd 68 93 a9 bb cd e4 da bd a1 07 90 bd
       -0.06521817 -0.005175043 -0.106881715 -0.07032705
0000c0 81 6d 2d bc d5 cf 52 bd 3d b9 1a bc 62 d6 c4 3c
       -0.01058519 -0.051467735 -0.009443578 0.024028007
0000d0 04 ac 0f be 2d cc 26 bd 5b 7a 05 bc 10 d1 21 3c
       -0.14030463 -0.04072206 -0.008146848 0.009876505
0000e0 1c e9 b9 bc b7 ff 01 bd 2d e6 51 3a 5b 4c 89 bc
       -0.022694163 -0.03173801 0.0008007016 -0.016760042
0000f0 14 57 83 bd 30 fe a1 3c 4d 74 0e bc 0f 1a df bd
       -0.06413093 0.019774526 -0.00869472 -0.10893642

conv6.weight f4 [1, 64, 1, 1]
000000 00 81 d4 3d 16 7b 77 3d 16 da ec bd 2c ce 20 3d
       0.10376167 0.06042012 -0.11565034 0.03925912
000010 5c df 44 3c c0 38 6d be ff 08 95 bb de 2c f0 3c
       0.012016144 -0.2316618 -0.0045481916 0.02931827
000020 3e e4 3a be bf 25 ce 3d 9b 91 43 bd cf 25 9b 3d
       -0.1825113 0.10065793 -0.047746282 0.07575571
000030 1a 86 3e bd a4 0a d3 bc 9b 44 86 3b fb ed 74 bc
       -0.046514608 -0.02576191 0.004097534 -0.014949317
000040 98 96 ae 3d ad 5c 29 bd f7 5a 5f 3d d8 9a d5 ba
       0.08524817 -0.041348148 0.05453011 -0.0016296757
000050 4d fe 36 3b cd 7f 8c be 8b 50 a0 bb 12 00 1f be
       0.0027922571 -0.27441254 -0.004892414 -0.1552737
000060 f6 7e a2 bd b9 36 9a bb 79 c3 fe 3c 63 70 b1 bd
       -0.07934372 -0.0047062305 0.031099068 -0.08664014
000070 1c 2f 72 3c ea af 4c ba 7e a2 ad bb 99 f6 4d 3b
       0.01478174 -0.00078081957 -0.0052989116 0.0031427501
000080 48 ba f6 3d 59 5a 23 be 12 be 26 be 52 77 f3 bd
       0.12047249 -0.15952434 -0.16283444 -0.11887993
000090 fb bb 20 3e c4 0c 9c bd 0f f8 da 3c 10 37 db bc
       0.15696709 -0.07619622 0.026729612 -0.026759654
0000a0 1b ad 14 be d2 dd 2b 3d bc c0 2a 3c ee 9c d1 3d
       -0.1451916 0.04195959 0.010421928 0.1023501
0000b0 0f bb b8 bb d2 ac a7 bd 1f 5b 0d bd 2a c5 bf 3d
       -0.0056375335 -0.0818726 -0.034510728 0.09363778
0000c0 69 04 9f 3d 33 6a 20 3d 4b d6 cb 3d 90 6a d4 b8
       0.07764513 0.03916378 0.099529825 -0.000101287966
0000d0 9b 09 5c be c5 fa d3 bd df 53 58 3d ba 82 01 be
       -0.21488039 -0.10350565 0.05281436 -0.12647524
0000e0 fc 94 1f 3d 77 dc d5 3d 10 fa f5 3c e9 ce f2 ba
       0.038960442 0.10442441 0.030026466 -0.0018524799
0000f0 ca 8b ff 3b cb 95 45 3c 33 57 8e bd 28 6f fa bd
       0.0077986466 0.012059639 -0.06950226 -0.122282326
