pretrained_models/model1.pt (torch, 620258 bytes, 11 tensors)

conv1.weight f4 [64, 11, 3, 3]
0	0xbd83898f	-0.064227216
1	0x3e845a77	0.2585027
2	0xbde308bc	-0.1108565
3	0x3d35a34b	0.04434518
4	0xbee65887	-0.44989416
5	0x3dc72ca3	0.09725311
6	0xbe27dbe3	-0.16392474
7	0x3d0b7330	0.0340454
8	0xbd043824	-0.032280102
9	0xbba4efbe	-0.0050334623
10	0xbd1aecd8	-0.037823528
11	0x3ca81bf1	0.020521136
12	0xbd6e8dda	-0.05824075
13	0x3d93ace6	0.07210712
14	0x3d055045	0.032547254
15	0xbdd30286	-0.10303216
16	0xb9eb40ac	-0.00044870877
17	0x3c2ce613	0.010552901
18	0xbeabf960	-0.33588696
19	0x3c3e93d7	0.011631927
20	0xbc8adb6b	-0.01695033
21	0xbe8d0146	-0.27540034
22	0xbddec469	-0.10877306
23	0xbd8c1095	-0.068391
24	0xbd018980	-0.03162527
25	0xbd1c6e9f	-0.038191434
26	0x3d93d200	0.07217789
27	0x3da601f0	0.08105838
28	0x3dfaf1e2	0.12253167
29	0xbc85e6a8	-0.016345337
30	0x3e11cff1	0.1423948
31	0xbe02c6f3	-0.12771206
32	0x3e1788f4	0.14798337
33	0xbe9d0e1b	-0.30674824
34	0x3e69dec6	0.22838888
35	0xbd2c6f7c	-0.042098507
36	0xbdf2d6f3	-0.118574046
37	0x3e43452b	0.19069354
38	0xbcfc9b66	-0.030835818
39	0xbd2f57df	-0.04280841
40	0xbe524760	-0.2053504
41	0x3e59d680	0.21273232
42	0xbd3bec9f	-0.045879956
43	0x3d43acc0	0.04777217
44	0x3da3a428	0.07990295
45	0x3bca8826	0.006180781
46	0x3d9bfeba	0.076169446
47	0xbe493923	-0.19650702
48	0xbe382be5	-0.17985494
49	0xbe316be9	-0.1732632
50	0x3cb1b218	0.021691367
51	0xbdb55c4c	-0.08855495
52	0x3d8e57c9	0.069503374
53	0xbe2b7be0	-0.16746473
54	0x3b8a685c	0.0042238664
55	0xbe805388	-0.2506373
56	0xbe548886	-0.20755205
57	0xbeb5b845	-0.3549215
58	0xbe9f0b56	-0.31063336
59	0xbcc37a1d	-0.02386194
60	0x3d23c917	0.039986696
61	0xbddb871c	-0.107191294
62	0x3d1d318e	0.038377337
63	0xbc1b0623	-0.009461912
64	0x3e977af4	0.29585993
65	0x3e85958c	0.26090658
66	0xbcf1a662	-0.029498283
67	0x3c13f8f1	0.00903152
68	0xbdae1bbe	-0.08501385
69	0x3e1970f4	0.14984494
70	0x3d8e4bd3	0.06948056
71	0xbcd5a0c3	-0.026077634
72	0xbe52fe20	-0.20604753
73	0x3e0642a0	0.13111353
74	0xbd358a79	-0.04432151
75	0xbe1aba90	-0.1511023
76	0xbcc6b55f	-0.024256406
77	0x39cf18c8	0.0003950058
78	0x3d2ab15d	0.041673053
79	0xbdfedaa9	-0.1244405
80	0x3e207330	0.1566894
81	0xbcfc2d9b	-0.030783465
82	0xbd358008	-0.044311553
83	0xbd2a3938	-0.041558474
84	0x3da19627	0.078899674
85	0x3b11e49d	0.0022261508
86	0xbd8ae90b	-0.06782731
87	0xbc9d02c2	-0.019166354
88	0x3e3487f3	0.17629986
89	0x3c6ea26d	0.0145650925
90	0xbdc20542	-0.09473659
91	0x3d2cd900	0.042199135
92	0x3d3e3348	0.046435624
93	0xbb5bf7aa	-0.0033564367
94	0x3c4c0297	0.012451789
95	0x3c04fff8	0.008117668
96	0xbcb41306	-0.021981727
97	0x3dc4493f	0.09584283
98	0x3d72b05c	0.05925022
99	0xbdb00b19	-0.08595867
100	0xbe0c802a	-0.13720766
101	0x3c96f0b3	0.018425321
102	0x3cb709aa	0.022343475
103	0xbdc85a5c	-0.0978286
104	0xbe5cb256	-0.21552405
105	0x3dc28a0d	0.09498987
106	0xbcb8ff33	-0.022582626
107	0x3c4e8c8c	0.012606751
108	0xbdb86f77	-0.09005635
109	0xbda6d8de	-0.08146833
110	0xbd80e76b	-0.062941395
111	0xbd8bdfea	-0.068298176
112	0xbd6182d9	-0.055056427
113	0x3d023346	0.03178718
114	0xbd8d705d	-0.06906197
115	0xbd24a1b1	-0.040193263
116	0xbe058cca	-0.13041988
117	0xbc1a1fcf	-0.009406998
118	0x3db2b2f4	0.08725539
119	0xbca4333d	-0.020043964
120	0xbe23b4d4	-0.15986949
121	0x3c8e78fa	0.01739167
122	0x3b802a64	0.0039113034
123	0xbe7b19f7	-0.24521624
124	0xbdcee135	-0.101015486
125	0xbe40be43	-0.18822579
126	0x3dc9e90f	0.098589055
127	0xbe1c9e08	-0.15294659
128	0xbd358850	-0.04431945
129	0x3d0e3838	0.034721583
130	0xbdb0b17c	-0.086276025
131	0xbe2429c9	-0.16031565
132	0x3c0e7adf	0.008696287
133	0x3d53e9e7	0.05173674
134	0xbe02cec0	-0.12774181
135	0x3d38f7ca	0.045158185
136	0x3a6e0aea	0.0009080606
137	0xbd827485	-0.063698806
138	0xbe062b4f	-0.13102458
139	0xbdc4f805	-0.096176185
140	0x3d12d93c	0.035851702
141	0xbc7bdd12	-0.0153725315
142	0xbc731614	-0.014836807
143	0xbdcd1dca	-0.100154474
144	0xbe16e05a	-0.14734021
145	0xbdf1db1a	-0.118093684
146	0x3d6df68b	0.05809645
147	0xbe273963	-0.16330485
148	0xbd6aed0c	-0.05735497
149	0xbdf907d1	-0.12159694
150	0x3ddcf349	0.107885905
151	0xbe3988f9	-0.18118657
152	0x3d9d4e66	0.07680969
153	0xbde2ed1f	-0.110803835
154	0xbe1ddc89	-0.15416159
155	0x3dbc746c	0.09201893
156	0xbe5c71e2	-0.21527818
157	0xbe5da355	-0.21644337
158	0xbd990398	-0.074713886
159	0x3e0ff3b5	0.1405781
160	0x3d27a643	0.040930044
161	0x3e0cf280	0.13764381
162	0xbd4b497b	-0.049630623
163	0xbae38ca4	-0.001736064
164	0x3d8832b1	0.066502936
165	0xbcaf2e3f	-0.021384357
166	0xbca7b2ab	-0.020470938
167	0x3be9ef9f	0.0071391608
168	0x3bdd3a58	0.00675134
169	0xbe7827b7	-0.242339
170	0x3dc16624	0.0944331
171	0xbde832c5	-0.113378085
172	0xbdbaa22a	-0.091129616
173	0x3d56e339	0.05246279
174	0xbd66b6a5	-0.056326527
175	0xbd9727f4	-0.07380667
176	0xbdaa65ce	-0.08320199
177	0xbd52de0f	-0.051481303
178	0xbd529a8f	-0.05141693
179	0xbcedacdd	-0.029013092
180	0x3c93de1f	0.018050252
181	0xbdc96d8e	-0.09835349
182	0x3c85449c	0.016268067
183	0x3cb44412	0.022005115
184	0xbd5c6cba	-0.053814627
185	0xbda3f2da	-0.08005305
186	0xbd5d9527	-0.05409732
187	0x3d8888e6	0.06666736
188	0x3e3e17f5	0.18563826
189	0xbc559141	-0.0130351195
190	0xbcb99a78	-0.022656664
191	0xbd8f70f7	-0.07003968
192	0xbd78f469	-0.060779963
193	0xbccfe769	-0.0253789
194	0x3d48f6a1	0.04906333
195	0x3cf2a511	0.029619725
196	0x3d90f02b	0.070770584
197	0xbd39674d	-0.04526453
198	0x3df37a51	0.118885644
199	0x3e0b814c	0.13623542
200	0x3da35ecb	0.07977065
201	0x3dcc5136	0.09976427
202	0x3de5e901	0.112260826
203	0x3d0cb82f	0.03435534
204	0x3bbe6c63	0.0058112605
205	0xbc2fa6fd	-0.010720965
206	0xbbac7fd7	-0.005264263
207	0xbd1595a1	-0.03651965
208	0x3d4e43c7	0.050357606
209	0x3d6fbc50	0.0585292
210	0xbdff3387	-0.12461
211	0xbd8e62c4	-0.06952432
212	0xbb8c1974	-0.004275495
213	0xbc0497a6	-0.008092796
214	0xbe0576bf	-0.1303358
215	0xbdbcbe67	-0.09216004
216	0xbcd68ee7	-0.026191188
217	0xbe0d95c6	-0.13826665
218	0x3c8b98fd	0.017040724
219	0x3da286e4	0.079358846
220	0x3cd1093f	0.025517104
221	0x3c4c4d0e	0.012469543
222	0xbd0ee583	-0.03488685
223	0xbd76ad44	-0.060223833
224	0x3c8b479c	0.01700192
225	0xbd74db39	-0.05977938
226	0xbdc00ab8	-0.093770444
227	0x3d41296e	0.04715865
228	0x3c678b31	0.014132307
229	0xbcc3c09c	-0.023895554
230	0x3d906aa8	0.07051593
231	0x3d95be13	0.073116444
232	0x3dd8437b	0.10559746
233	0x3dcc66c8	0.099805415
234	0x3e2f393a	0.17111674
235	0x3e1cadc1	0.15300657
236	0xbdf53936	-0.11973803
237	0x3dd2053b	0.10254904
238	0xbc341fb9	-0.010993891
239	0xbdf646de	-0.120252356
240	0x3d99c152	0.07507576
241	0x3e0689a0	0.13138437
242	0x3dceded8	0.10101098
243	0x3e808618	0.25102305
244	0x3eb697bf	0.35662648
245	0x3c5bafdb	0.013408626
246	0x3e3684a8	0.17824042
247	0x3e5ce5fc	0.21572107
248	0xbdd6bcb2	-0.104852095
249	0xbcf74763	-0.030185407
250	0x3d82c184	0.063845664
251	0x3de2d3ed	0.11075578
252	0x3ec44e7c	0.3834113
253	0x3e59d9bd	0.21274467
254	0xbe52e3f1	-0.20594765
255	0x3e0789c4	0.13236147

conv1.bias f4 [64]
0	0x3caf385c	0.021389179
1	0xbd391cf1	-0.045193616
2	0xbdbb0578	-0.091319025
3	0xbe0f0529	-0.13966812
4	0xbcb57665	-0.022151181
5	0x3d88781e	0.066635355
6	0xbdb7fdce	-0.08983956
7	0xbd9dd2bc	-0.0770621
8	0xbd29ceda	-0.041457035
9	0xbcc6bc82	-0.02425981
10	0x3c514903	0.012773755
11	0x3d551aab	0.052027386
12	0xbdaa4589	-0.08314044
13	0xbd33ec9a	-0.043926813
14	0x3c800cf7	0.015631182
15	0x3d8acb7b	0.06777092
16	0x3dc8f5be	0.098124966
17	0xbe26914a	-0.16266361
18	0x3d8cacae	0.068688735
19	0xbda26d07	-0.079309516
20	0x3c3134bb	0.010815795
21	0xbdcdf8d3	-0.10057225
22	0xbdab8815	-0.08375565
23	0xbd7345d0	-0.05939275
24	0xbd52d90b	-0.05147652
25	0xbd2359f4	-0.039880708
26	0x3dc0d13b	0.094149075
27	0x3d2e61c9	0.042573724
28	0x3d37a5cd	0.044835854
29	0xbd2536a1	-0.0403353
30	0xbe25489d	-0.16140981
31	0xbdbac2f7	-0.09119218
32	0xbd3a36cd	-0.04546242
33	0xbe27ffcd	-0.16406174
34	0xbd3b95f3	-0.0457973
35	0xbd97192b	-0.07377847
36	0xbd559eed	-0.052153517
37	0xbd929172	-0.07156648
38	0xbc1eddd9	-0.009696447
39	0x3dfeb4d6	0.124368355
40	0x3d2d0370	0.042239606
41	0x3dcf797c	0.10130593
42	0xbdfe9321	-0.12430406
43	0xbd887973	-0.066637896
44	0x3db35d76	0.08758061
45	0xbdb1f8f6	-0.08690064
46	0x3bffbb6f	0.0078043262
47	0x3d1f0056	0.03881868
48	0x3cffebbd	0.031240338
49	0x3da6143e	0.0810933
50	0xbd638010	-0.05554205
51	0xbd858daa	-0.06521161
52	0x3d44fbbd	0.04809164
53	0x3d259997	0.040429678
54	0xbd493871	-0.049126092
55	0xbcf48459	-0.029848265
56	0x3cde3bd8	0.027128145
57	0xbe00d6d0	-0.12581944
58	0x3d377589	0.044789825
59	0xbd8e73c2	-0.06955673
60	0xbd1b061e	-0.03784763
61	0xbdf40905	-0.11915783
62	0x3b80d1b6	0.0039312495
63	0xbd32d7ab	-0.04366271

conv2.weight f4 [64, 64, 3, 3]
0	0xbc50a3eb	-0.012734394
1	0x3d266aba	0.040629126
2	0xbdf6de71	-0.12054146
3	0xbdb661ab	-0.089053474
4	0xbd1496f2	-0.036276765
5	0xbdd6e93b	-0.10493704
6	0xbe0dd847	-0.13852035
7	0xbceb7cae	-0.028745975
8	0xbaa029dd	-0.0012219507
9	0x3d91e07f	0.07122897
10	0x3dc5af38	0.09652561
11	0x3e0c5554	0.13704425
12	0xbd93b79f	-0.07212757
13	0x3c62d82c	0.013845485
14	0xbd68499e	-0.05671083
15	0x3d4f563d	0.050619353
16	0xbda6872b	-0.0813125
17	0x3c50160c	0.012700569
18	0x3e23b9a6	0.15988788
19	0x3dab9c1a	0.083793834
20	0x3dff4fed	0.124664165
21	0x3cc9e0b4	0.02464328
22	0x3df5fe7b	0.12011429
23	0x3da0590b	0.078294836
24	0xbd87c410	-0.06629193
25	0x3da0beea	0.07848914
26	0x3debba0f	0.11510097
27	0xbcd77228	-0.026299551
28	0x3de9d2e6	0.11417179
29	0xbe0cf551	-0.13765456
30	0x3c9f5dbf	0.019453881
31	0x3caaf5e8	0.02086921
32	0x3cf664e9	0.030077415
33	0xbcc1ad05	-0.023642072
34	0x3dd73816	0.105087444
35	0x3c891edb	0.016738346
36	0x3dca1d1a	0.09868832
37	0xbe7bd399	-0.24592437
38	0xbe90b5f0	-0.28263807
39	0x3b9f7c3e	0.0048671057
40	0x3c37492c	0.011186879
41	0x3df3ea21	0.11909891
42	0x3e1a6541	0.15077688
43	0xbe8501e9	-0.2597802
44	0x3ce2929b	0.027657798
45	0x3dbf06f3	0.09327497
46	0xbdb1577e	-0.08659266
47	0x3c59993d	0.013281164
48	0x3d1c5a1b	0.03817187
49	0x3d9e5aee	0.07732187
50	0x3d8d4108	0.06897169
51	0xbe152b3f	-0.14567278
52	0xbd034003	-0.03204347
53	0x3d324cfc	0.04353045
54	0x3d989768	0.074507535
55	0x3d0bbb6e	0.034114294
56	0x3d76e0ee	0.060273103
57	0xbcce7d3f	-0.025206206
58	0x3b9101c6	0.0044252602
59	0x3d6e696b	0.058206003
60	0x3c6137b0	0.013746187
61	0xbc9da712	-0.019244704
62	0x3c90d07c	0.017677538
63	0xbd13440a	-0.03595356
64	0xbcd6a01a	-0.02619939
65	0x3dc8f277	0.098118715
66	0xbe3e9570	-0.18611693
67	0x3d3bc01a	0.0458375
68	0xbd1ebb94	-0.038753107
69	0xbe3e543f	-0.18586825
70	0xbde216ff	-0.110395424
71	0xbd3e7719	-0.0465003
72	0xbda9fbf7	-0.083000116
73	0x3bdbf07e	0.0067120185
74	0x3e0344a2	0.1281915
75	0xbe2ca345	-0.16859157
76	0x3d0735d3	0.033010315
77	0x3b6e9569	0.0036404973
78	0xbe0cdf7d	-0.13757129
79	0xbda80668	-0.08204347
80	0xbdbb856a	-0.09156306
81	0xbd993f22	-0.07482745
82	0x3d8f905d	0.07009957
83	0xbbfa8b07	-0.007645968
84	0x3d900f6b	0.07034191
85	0xbcbf9c17	-0.02338986
86	0xbd0f2df5	-0.034955937
87	0x3ce6304b	0.0280992
88	0xbd135d66	-0.035977744
89	0xbc554aaf	-0.013018294
90	0xbdee638d	-0.116400816
91	0xbd75c051	-0.05999786
92	0xbe199aa3	-0.15000395
93	0xbd53fdca	-0.051755704
94	0xbd26ea22	-0.04075063
95	0xbdd1f7f9	-0.10252375
96	0x3d4624ee	0.048375063
97	0xbdb3e057	-0.08783024
98	0x3da3a1ba	0.07989831
99	0xbc3ceaa0	-0.011530548
100	0x3d406011	0.046966616
101	0x3df0d02d	0.117584564
102	0x3d77b465	0.060474772
103	0xbbcbbc06	-0.0062174825
104	0x3e435e55	0.19078954
105	0xbd9b5246	-0.07584052
106	0xbd198732	-0.037482448
107	0xbb8381a5	-0.0040132576
108	0x3d70a23d	0.058748472
109	0x3c69e741	0.014276327
110	0xbdfee5a8	-0.12446147
111	0x3d366844	0.04453303
112	0x3e0a9e43	0.13536935
113	0x3e554756	0.20827994
114	0xbe739fda	-0.23791447
115	0xbe24e0b2	-0.1610134
116	0xbc6ad948	-0.01433403
117	0x3dea2762	0.11433293
118	0x3d4b6482	0.0496564
119	0xbbac7f71	-0.0052642156
120	0x3d721539	0.05910227
121	0xbe661a2f	-0.22470926
122	0x3e3a5e8e	0.18200132
123	0x3e294f37	0.16534124
124	0xbd6d964d	-0.058004666
125	0xbd8a90f0	-0.06765926
126	0x3d6ed5d1	0.05830938
127	0x3dbf5015	0.09341446
128	0xbe352d7b	-0.1769313
129	0x3c6754ef	0.014119371
130	0x3e91a285	0.28444305
131	0x3c812379	0.015763985
132	0x3daba7f4	0.08381644
133	0xbdefc54d	-0.11707554
134	0xbcef55d3	-0.029215729
135	0x3e0a6d69	0.13518299
136	0x3db5cfe3	0.08877542
137	0xbda643eb	-0.08118423
138	0xba8dd22e	-0.0010820085
139	0x3d8fc60a	0.07020195
140	0xbda3e2aa	-0.08002217
141	0xbc82f4f8	-0.01598595
142	0x3ab39e78	0.0013703844
143	0xbd7c98d5	-0.06166919
144	0xbe81e845	-0.2537252
145	0x3eb122c2	0.3459683
146	0x3d42b217	0.04753312
147	0xbdf58fea	-0.1199034
148	0x3e3fde2d	0.18737097
149	0xbd7ba349	-0.061435018
150	0xbec6c25a	-0.38820153
151	0x3e803db6	0.25047082
152	0xbd83e0b7	-0.06439345
153	0x3c7f2be0	0.015574425
154	0xbd2fceb6	-0.042921744
155	0xbbbaeda3	-0.005704598
156	0xbd139168	-0.036027342
157	0x3d2d4531	0.042302314
158	0x3b358dd8	0.0027702954
159	0x3b921e18	0.004459154
160	0xbb762b90	-0.0037562586
161	0x3c87df7c	0.016586058
162	0xbe45d890	-0.19320893
163	0x3b811886	0.003939691
164	0xbda0df7b	-0.078551255
165	0x3e3a7231	0.18207623
166	0xbcab8068	-0.020935252
167	0xbc5da7fc	-0.01352882
168	0x3dfd9f8c	0.12383947
169	0xbe007730	-0.12545466
170	0xbd83e493	-0.064400814
171	0xbd9af255	-0.075657524
172	0x3c87eda5	0.01659281
173	0x3e66e2a1	0.2254739
174	0xbe547505	-0.20747764
175	0xbd598529	-0.053105507
176	0xbc828812	-0.015934024
177	0x3c1d1dd9	0.009589636
178	0xbdba9367	-0.09110146
179	0xbd67c761	-0.056586627
180	0x3d9cd8c5	0.07658533
181	0xbded0091	-0.11572374
182	0x3c8e20f6	0.017349701
183	0x3d88e863	0.06684949
184	0x3d1dc9c7	0.038522508
185	0x3d346a40	0.04404664
186	0x3d00ccae	0.031445198
187	0x3e839fa0	0.25707722
188	0xbd464280	-0.048403263
189	0xbd294eb3	-0.04133482
190	0xbe3bdfe4	-0.18347126
191	0x3cc8b687	0.024501098
192	0x3e3b16d5	0.18270428
193	0x3da12582	0.07868482
194	0x3dd59856	0.104294464
195	0x3dd7d3fa	0.10538478
196	0xbddfd2b9	-0.10928864
197	0x3c9c15e5	0.019053409
198	0x3e47d065	0.1951309
199	0xbd32b0c0	-0.043625593
200	0xbe3d6244	-0.18494517
201	0x3d493dbf	0.04913115
202	0x3de73a93	0.11290469
203	0xbc492b9c	-0.012278464
204	0xbe245145	-0.16046627
205	0xbb65302d	-0.0034971342
206	0xbc39e971	-0.011347161
207	0x3d950ada	0.072774604
208	0x3e7ad78b	0.24496286
209	0xbd98a10f	-0.074525945
210	0xbd7b7965	-0.061395068
211	0x3da61ffd	0.0811157
212	0x3b8d61bd	0.00431463
213	0x3a6097ab	0.0008567522
214	0xbd7fedb6	-0.06248256
215	0x3c6de820	0.014520675
216	0x3d0591bf	0.032609697
217	0x3d0a6e13	0.03379638
218	0x3dfeb44d	0.124367334
219	0xbd4ffbe0	-0.050777316
220	0x3d46fe15	0.048582155
221	0xbc403958	-0.011732422
222	0xbd5771b5	-0.052598674
223	0x3de79c4a	0.11309107
224	0xbdedb570	-0.11606872
225	0xbd8de128	-0.06927711
226	0x3e4b0751	0.1982701
227	0xbdc4e3c1	-0.09613753
228	0x3dd939c5	0.10606722
229	0x3d6d0c89	0.057873283
230	0xbd8b2581	-0.06794263
231	0xbe1da0d1	-0.15393378
232	0xbdac2a86	-0.08406548
233	0xbd9ef940	-0.077623844
234	0x3c9e39af	0.019314615
235	0xbd59a85a	-0.05313907
236	0xbd4dccba	-0.05024407
237	0x3c5668bf	0.013086497
238	0x3d94f4ac	0.0727323
239	0xbd6c0efa	-0.05763147
240	0xbd24b317	-0.040209856
241	0x3ce7927e	0.028268095
242	0xbceb4f02	-0.028724197
243	0xbe85460b	-0.2603
244	0x3c54339a	0.012951756
245	0x3e191d88	0.14952672
246	0xbe9c3433	-0.30508575
247	0xbd32fd33	-0.0436985
248	0x3ca0765d	0.01958769
249	0xbe811d46	-0.25217646
250	0xbd2f3c1e	-0.04278194
251	0x3db13b48	0.08653885
252	0xbd8f4258	-0.06995076
253	0xb9640654	-0.00021746132
254	0x3d0cdff6	0.034393273
255	0x3d9326b9	0.0718512

conv2.bias f4 [64]
0	0x3b128bad	0.0022361085
1	0xbdf0ae05	-0.117519416
2	0xbdd213f0	-0.10257709
3	0xbcb58f1a	-0.022162963
4	0xbd9b8854	-0.07594362
5	0xbdc1890b	-0.09449967
6	0xbd6669b1	-0.05625314
7	0xbd67cf9f	-0.056594487
8	0xbdc7078c	-0.09718236
9	0xbd1ec9a8	-0.038766533
10	0xbd9ea76f	-0.07746779
11	0xbdba0207	-0.09082418
12	0xbc87fc6c	-0.016599856
13	0x3d1bb1b3	0.038011264
14	0xbd48b43e	-0.049000017
15	0xbda27b3a	-0.0793366
16	0xbc0dcf26	-0.008655345
17	0xbd82be87	-0.063839965
18	0xbd7c7cfd	-0.061642636
19	0xbcf83270	-0.030297488
20	0xbe0c329d	-0.13691182
21	0xbbce581d	-0.006297125
22	0xbdee31c7	-0.11630588
23	0x3d602481	0.054722313
24	0x3cb0d68c	0.021586679
25	0xbd8f569f	-0.069989435
26	0xbdb2478a	-0.08705051
27	0xbd676077	-0.05648848
28	0xbb0a5f83	-0.0021114058
29	0x3c89ac16	0.01680569
30	0xb9e3b476	-0.00043431268
31	0xbda77ec0	-0.081784725
32	0xbd50197f	-0.050805565
33	0x3db727a6	0.08943109
34	0xbddb0adf	-0.10695433
35	0xbda47fd7	-0.08032196
36	0xbc0231f4	-0.00794648
37	0xbb8a30cc	-0.004217243
38	0xbdc4885b	-0.0959632
39	0xbd59b3e4	-0.053150073
40	0xbd7ef887	-0.062248733
41	0xbd3bb42d	-0.045826126
42	0xbc26b3d6	-0.010174712
43	0xbd1189c9	-0.035531793
44	0xbc2e0b6a	-0.0106228385
45	0xbd258c7b	-0.040417176
46	0x3cd66654	0.02617184
47	0x3cf51e08	0.029921547
48	0x3c7cca9a	0.015429163
49	0x3ba135f2	0.004919761
50	0xbd8262d6	-0.06366508
51	0xbdb2f3b2	-0.087378874
52	0xbd8982d5	-0.06714407
53	0x3dc0e839	0.09419293
54	0x3c30acf9	0.010783427
55	0xbd86ec0f	-0.06587993
56	0xbd03d60b	-0.03218655
57	0x3d2b5417	0.04182824
58	0xbd6c4649	-0.057684217
59	0x3c1f2b86	0.009714967
60	0xbdb5c01e	-0.08874534
61	0xbe0a1b53	-0.13486986
62	0xbdc8a32c	-0.097967476
63	0xbd3c03f3	-0.045902204

conv3.weight f4 [64, 64, 3, 3]
0	0xbdca5ab4	-0.098805815
1	0xbcfc46c3	-0.03079546
2	0xbd779a1d	-0.06044971
3	0xbe05d5fa	-0.13069907
4	0xbd600a24	-0.05469717
5	0xbd2b7db3	-0.041867923
6	0x3dd56b7b	0.10420891
7	0xbded0295	-0.11572758
8	0xbb18c6eb	-0.0023311924
9	0xbe04bc4b	-0.12962453
10	0xbe49d1df	-0.19708966
11	0x3c41fa17	0.011839411
12	0x3b5b8635	0.0033496742
13	0xbce0c8f5	-0.027439574
14	0x3da5339d	0.08066485
15	0x3c80c509	0.015718954
16	0xbde05886	-0.109543845
17	0xbd8bcb97	-0.06825941
18	0x3e080829	0.13284363
19	0x3cebc8fb	0.028782358
20	0xbdb2c0ee	-0.08728205
21	0x3dbd0ba4	0.09230736
22	0x3dc2f645	0.095196284
23	0x3dbad971	0.09123505
24	0xbd059f21	-0.03262246
25	0xbda29bc8	-0.07939869
26	0x3e183b38	0.1486634
27	0xbb614f5a	-0.0034379573
28	0x3e328427	0.17433225
29	0x3e025482	0.1272755
30	0x3b289091	0.0025720934
31	0x3d2036fe	0.039114945
32	0x3d80f7ac	0.0629724
33	0x3d630d5c	0.055432662
34	0x3d65cdb1	0.056104366
35	0xbbf48f79	-0.0074633923
36	0x3d78bd4c	0.060727403
37	0x3e76fa60	0.24118948
38	0x3e08e888	0.13369954
39	0x3dc3cc62	0.09560467
40	0x3d81f06f	0.06344687
41	0xbe06e4a7	-0.13173161
42	0xbcc6d369	-0.02427073
43	0xbe9657eb	-0.2936395
44	0xbd086676	-0.03330084
45	0xbb453e87	-0.0030097084
46	0x3d70ad2d	0.058758903
47	0x3d078bdd	0.03309237
48	0xbcbde6a8	-0.023181275
49	0x3d04b1bd	0.032396067
50	0x3c6cfe6a	0.014464954
51	0xbd2db0d7	-0.042404976
52	0xbd311be9	-0.043239508
53	0xbd6106fe	-0.05493831
54	0x3cf21758	0.029552147
55	0x3c741cf8	0.014899485
56	0xbce00707	-0.0273471
57	0xbc415f27	-0.011802471
58	0xbc2bc11c	-0.010483053
59	0xbc63ed4e	-0.013911558
60	0x3d01623d	0.031587828
61	0xbbaf8341	-0.005356223
62	0xbd0e97ed	-0.034812856
63	0x3aeb3cd7	0.0017947209
64	0x3d159a63	0.036524188
65	0xbd70495a	-0.058663704
66	0x3d7516e7	0.059836295
67	0xbd9c0fa1	-0.076201685
68	0xbe22edb9	-0.15910996
69	0x3e0f2e6a	0.1398255
70	0x3d2d672c	0.04233472
71	0x3e3ce3b0	0.18446231
72	0x3d40af66	0.047042273
73	0x3dbf5937	0.09343188
74	0xbccc05ad	-0.02490505
75	0xbcaefde2	-0.021361295
76	0x3e8fd436	0.28091592
77	0xbd378546	-0.044804834
78	0xbd8622c5	-0.065496005
79	0x3cf3fe0f	0.02978423
80	0x3c9f6fd0	0.019462496
81	0x3e36ee56	0.17864355
82	0xbb952e0f	-0.0045526098
83	0x3cb9eb77	0.022695286
84	0x3c068ca6	0.008212244
85	0xbd8ec4e9	-0.069711514
86	0xbcc45f38	-0.023971185
87	0xbe2e9761	-0.17049934
88	0xbc9c5052	-0.019081268
89	0x3c344284	0.011002187
90	0x3d24a012	0.040191717
91	0x3e05a7b4	0.13052255
92	0xbc72d906	-0.01482225
93	0xbd5e497a	-0.05426929
94	0xbcb38e6c	-0.021918498
95	0xbc35e2f2	-0.011101471
96	0xbd78db6b	-0.06075613
97	0xbda0ab14	-0.078451306
98	0xbe011423	-0.12605338
99	0x3c828e3a	0.01593696
100	0xbbcf31ca	-0.006323074
101	0xbd145983	-0.036218178
102	0xbc3dd4b1	-0.011586354
103	0xbce1e9ed	-0.027577365
104	0xbc052e68	-0.00812874
105	0x3d083899	0.0332571
106	0x3c8f3579	0.017481552
107	0xbce917f0	-0.028453797
108	0x3af6dea2	0.001883466
109	0xbc5aeb8c	-0.013361823
110	0xbd184642	-0.037176378
111	0x3cb16f36	0.021659475
112	0xbbe95668	-0.007120896
113	0xbcda4d14	-0.026648082
114	0xbcce407e	-0.025177237
115	0xbca4cfa0	-0.020118535
116	0xbcebf863	-0.028804963
117	0x3ca51da1	0.02015573
118	0xbe433e79	-0.190668
119	0xbe22ab51	-0.15885665
120	0x3e0622f4	0.13099271
121	0x3c90e28e	0.017686155
122	0x3d46480b	0.04840855
123	0xbd6c3554	-0.057668045
124	0x3ce9116a	0.028450686
125	0x3cfeeaca	0.031117816
126	0x3d05de2c	0.032682583
127	0x3d11a5cc	0.035558507
128	0xbd241e34	-0.040067866
129	0x3cac7581	0.021052124
130	0xbd03fcb2	-0.03222341
131	0xbcb32974	-0.021870352
132	0x3d19fa5b	0.037592273
133	0x3c0278fe	0.007963417
134	0x3c772712	0.015084999
135	0xbcd520aa	-0.026016552
136	0x3c50b673	0.012738812
137	0xbd067fb7	-0.032836642
138	0x3cc6a535	0.024248699
139	0x3c2fb292	0.010723727
140	0xbbf74028	-0.00754549
141	0xbcb7c132	-0.02243099
142	0x3c392f3c	0.011302765
143	0x3d1057a3	0.035239827
144	0x3e74956b	0.23885123
145	0xbddafaad	-0.10692344
146	0x3d4eaa63	0.050455462
147	0xbc4f0558	-0.012635551
148	0x3e338f98	0.17535245
149	0xbd75d274	-0.060015157
150	0xbd8c6d2a	-0.06856759
151	0x3c224d64	0.009906147
152	0xbe333bd3	-0.1750329
153	0xbd13f222	-0.036119588
154	0x3cdf9ce6	0.027296495
155	0xbca73f14	-0.02041582
156	0xbd03b8b4	-0.03215857
157	0xbac886fd	-0.0015299019
158	0x3bfeed2c	0.007779738
159	0x3c037163	0.008022639
160	0x3d214621	0.03937352
161	0xbc8f5abb	-0.017499318
162	0x38997d56	7.318954e-05
163	0xbd13add6	-0.036054455
164	0x3cbbd571	0.022928925
165	0xbc59b6b4	-0.013288189
166	0xbcc3cee0	-0.023902357
167	0xbc0446e6	-0.008073544
168	0x3c290260	0.010315508
169	0x3d13046e	0.035892896
170	0xbd21f3c2	-0.039539106
171	0xbdd177e2	-0.10227944
172	0xbd844d53	-0.06460061
173	0xbe0ae99f	-0.13565682
174	0x3dbb6c1e	0.09151481
175	0xbd3cc6a8	-0.04608789
176	0xbdec5b4a	-0.115408495
177	0xbd48b64b	-0.049001973
178	0x3d2e8cc1	0.042614702
179	0xbd6d8625	-0.05798926
180	0xbe70ed09	-0.23527922
181	0x3c1eaeda	0.009685243
182	0xbc9bc644	-0.019015439
183	0x3d524f47	0.051345136
184	0x3d960b35	0.07326356
185	0x3bf3c103	0.0074387803
186	0x3e6a878a	0.22903267
187	0xbe0ae4c4	-0.1356383
188	0x3e19aa3a	0.15006343
189	0xbc56822e	-0.013092561
190	0x3c19f7fe	0.009397505
191	0x3bb7667c	0.005596934
192	0x3bf34e0f	0.007425077
193	0x3c18858b	0.009309183
194	0xbbca7b16	-0.006179224
195	0x3bcbaf15	0.0062159398
196	0xbce907db	-0.028446129
197	0xbc704c7e	-0.014666675
198	0xbd50e3e7	-0.050998595
199	0xbdb05ca8	-0.08611423
200	0xbdc60cd4	-0.096704155
201	0xbc76554e	-0.015034987
202	0xbc96c89d	-0.018406207
203	0xbddb83c2	-0.1071849
204	0xbc964a91	-0.018346103
205	0xbda6241b	-0.08112355
206	0xbd632283	-0.055452835
207	0xbd9eaa58	-0.07747334
208	0xbe218070	-0.15771651
209	0xbd860daf	-0.06545579
210	0xbbeb6e8f	-0.0071848105
211	0xbd16a1d7	-0.036775436
212	0x3dd2d6d5	0.10294882
213	0x3c6df0a8	0.014522709
214	0xbd2d02b2	-0.0422389
215	0xbe78c743	-0.24294762
216	0x3cf410a2	0.029793087
217	0xbe161d06	-0.14659509
218	0xbdae0f38	-0.084989965
219	0xbccb2332	-0.024797056
220	0x3db5c14c	0.08874759
221	0xbe637081	-0.22210886
222	0x3c6e8e68	0.0145603195
223	0xbe63bb32	-0.22239378
224	0xbe4c8d5d	-0.19975801
225	0xbc9ea1b0	-0.019364208
226	0xbd3575d9	-0.04430184
227	0xba06e84f	-0.0005146311
228	0xbddfb997	-0.1092407
229	0xbc9e7755	-0.019344011
230	0xbc680837	-0.014162115
231	0xbd8ce70b	-0.068800054
232	0x3d4aa9bf	0.04947829
233	0xbc8bd0f8	-0.017067418
234	0x3e34f882	0.17672923
235	0x3da6a35b	0.08136626
236	0x3d10e752	0.035376854
237	0x3d7b2fe7	0.06132498
238	0x3db5121a	0.08841343
239	0xbd9a02b4	-0.07520047
240	0xbca7a057	-0.020462198
241	0x3cd28115	0.025696317
242	0x3cb7eda3	0.022452181
243	0x3c830b08	0.015996471
244	0x3bf80ec4	0.0075701196
245	0xbb9dc76f	-0.004815034
246	0xbda8e930	-0.08247602
247	0xbd0a18a0	-0.03371489
248	0x3ca142dd	0.019685203
249	0xbd026200	-0.03183174
250	0xbda577b8	-0.08079475
251	0x3ce49fe8	0.02790828
252	0xbe3b539d	-0.18293615
253	0xb875aab2	-5.8571524e-05
254	0xbdf487bf	-0.11939954
255	0x3c04da95	0.008108755

conv3.bias f4 [64]
0	0xbe07b130	-0.13251185
1	0xbd811210	-0.06302273
2	0x3d7404f7	0.059575047
3	0x3c9758b0	0.018474907
4	0x3cfb65ef	0.030688254
5	0x3d2e00e5	0.04248132
6	0x3cc3306a	0.023826797
7	0xbc04d796	-0.00810804
8	0xbd97ed6a	-0.0741833
9	0xbc6cdfef	-0.014457687
10	0xbb9979c8	-0.004683707
11	0x3cce5c91	0.025190623
12	0x3dc1f0c4	0.094697505
13	0xbddeed3e	-0.10885094
14	0xbd11d4c6	-0.035603307
15	0xbd7b098f	-0.061288413
16	0xbcc0cb8d	-0.02353456
17	0x3d26c5b6	0.040715896
18	0xbe24bd29	-0.16087784
19	0x3999a5da	0.00029306003
20	0xbd74caf4	-0.059763864
21	0xbcfd403a	-0.030914415
22	0xbc6bebfc	-0.014399525
23	0xbda81a68	-0.082081616
24	0xbd381611	-0.04494292
25	0xbd83acc7	-0.06429439
26	0xbd6dcaaa	-0.058054604
27	0xbd4770e1	-0.048691634
28	0xbda24470	-0.0792321
29	0xbdd41301	-0.10355187
30	0xbbad659d	-0.0052916543
31	0xba35d06c	-0.00069356593
32	0xbbe5e445	-0.0070157372
33	0xbe430ced	-0.190479
34	0x3dd6d449	0.10489709
35	0xbb881bf0	-0.004153721
36	0x3c867bd5	0.01641647
37	0x3dca187c	0.09867951
38	0xbdc7ffaa	-0.09765561
39	0xbe2d5d0f	-0.1693003
40	0xbdf62a18	-0.120197475
41	0xbdaee722	-0.08540179
42	0x3d844650	0.064587235
43	0xbdc4cc8b	-0.09609326
44	0xbd8fd44e	-0.07022916
45	0xb7f409bc	-2.90916e-05
46	0xbda400e0	-0.080079794
47	0xbe0d78a0	-0.13815546
48	0xbd89fe71	-0.06737984
49	0x3a9f84cc	0.0012170314
50	0x3ca4e3aa	0.02012809
51	0x3d60d7ce	0.054893307
52	0xbcc9cbd1	-0.02463332
53	0xbdc3e654	-0.09565416
54	0xbb5715ef	-0.003281947
55	0xbd611c5b	-0.054958683
56	0xbdbf89e0	-0.093524694
57	0x3d9d1d18	0.07671565
58	0xbd78add6	-0.060712658
59	0xbe2477c2	-0.16061309
60	0xbc076dac	-0.008265894
61	0xbdebf85d	-0.11521981
62	0xbce6f598	-0.02819328
63	0x3ba97330	0.005171202

conv4.weight f4 [64, 64, 3, 3]
0	0xbd1d05b5	-0.03833552
1	0x3c797447	0.015225477
2	0x3d722ce9	0.05912486
3	0x3e842f1c	0.25817192
4	0x3dc31f05	0.09527401
5	0x3df022d9	0.11725397
6	0x3e0280d5	0.12744458
7	0x3dc23289	0.09482295
8	0x3cb985e7	0.022646857
9	0x3ceefa73	0.029172158
10	0x3e620e21	0.22075702
11	0xbcf6dba2	-0.030134026
12	0xbe697c95	-0.2280143
13	0xbe94b9f6	-0.29048127
14	0x3e45487f	0.19265936
15	0x3e522aec	0.20524186
16	0xbe55fbba	-0.20896807
17	0xbceee72a	-0.029162962
18	0xbbfe5888	-0.0077620186
19	0xbddb1c50	-0.106987596
20	0xbe0de936	-0.13858494
21	0x3d030869	0.031990442
22	0xbe036272	-0.12830523
23	0xbe764587	-0.2404996
24	0xbdae6622	-0.08515574
25	0xbe1e370c	-0.15450686
26	0xbd8d6434	-0.06903878
27	0xbd11aca3	-0.03556503
28	0xbef3fd28	-0.4765408
29	0x3e6ea7e5	0.23306234
30	0xbf0b935f	-0.54521745
31	0x3e718629	0.23586334
32	0x3dbb1839	0.091354795
33	0xbda10258	-0.07861775
34	0xbea15cb3	-0.31516036
35	0x3d47f6bb	0.048819285
36	0x3b085034	0.0020799758
37	0xbd9a99c9	-0.075488634
38	0x3d09de83	0.03365947
39	0x3e229be4	0.1587978
40	0xbe741516	-0.23836169
41	0xbb8b782c	-0.004256269
42	0xbe8b9bd3	-0.27267322
43	0xbe2a9656	-0.16658911
44	0xbe7cd98d	-0.24692364
45	0x3e18536a	0.1487557
46	0x3d9dd503	0.077066444
47	0x3d00bced	0.031430174
48	0xbd3aa09c	-0.045563325
49	0xbebd8f27	-0.3702328
50	0x3ed0793d	0.40717497
51	0xbe6c8def	-0.23101018
52	0xbd1bf4a0	-0.03807509
53	0xbe2b3117	-0.16717945
54	0xbd92e4fe	-0.07172583
55	0xbdd0ae39	-0.1018948
56	0xbe28713e	-0.16449448
57	0x3d9bded2	0.07610859
58	0xbdd02b05	-0.10164455
59	0xbd756eac	-0.059919998
60	0x3e109b21	0.14121677
61	0x3e39275a	0.18081418
62	0x3d54b356	0.05192884
63	0xbd87d239	-0.06631894
64	0xbcdfe8dd	-0.027332718
65	0x3db4ce44	0.088284045
66	0x3e161c31	0.14659192
67	0x3d34a43c	0.04410194
68	0x3e7f6036	0.24939045
69	0xbe944f02	-0.28966528
70	0xbda3a915	-0.07991234
71	0x3cf2dd2a	0.029646475
72	0xbaa2b227	-0.0012412713
73	0x3dba97b6	0.09110968
74	0xbdb3f2b8	-0.08786529
75	0x3c851289	0.01624419
76	0xbe2df3a4	-0.16987473
77	0xbd1dc34e	-0.038516335
78	0xbda58e52	-0.08083786
79	0xbd4d6ae5	-0.05015077
80	0xbcb0e765	-0.021594713
81	0x3b957aa7	0.0045617404
82	0xbc63a963	-0.013895365
83	0x3d9222f3	0.07135572
84	0xbda39a64	-0.07988432
85	0xbd87662b	-0.06611284
86	0x3d9c1635	0.07621423
87	0x3e0a5c63	0.13511805
88	0xbe8bc146	-0.27295893
89	0xbd8f1685	-0.06986717
90	0x3cd84260	0.026398838
91	0xbdb31c36	-0.08745615
92	0x3cffa19c	0.031204991
93	0x3c8fd2df	0.017556606
94	0xbe2aa9f1	-0.1666639
95	0xbd56d3ec	-0.0524482
96	0xbd2466b9	-0.040137026
97	0xbda22356	-0.07916896
98	0xbd5426f2	-0.051794954
99	0xbe86f6c5	-0.26360145
100	0x3dd6817e	0.104739174
101	0x3bab2684	0.0052230973
102	0x3cb95dbd	0.022627706
103	0x3dad43b1	0.08460177
104	0xbd8f3494	-0.0699245
105	0xbdb7cda9	-0.089747734
106	0xbe4de022	-0.20105031
107	0xbe571ee3	-0.21007876
108	0xbe166ac1	-0.14689161
109	0x3be5f1d2	0.0070173526
110	0xbc926019	-0.017868089
111	0x3d61a0e2	0.05508507
112	0xbdb6990b	-0.089159094
113	0xbde2bd81	-0.11071301
114	0xbeda6be0	-0.42660427
115	0x3d9e4730	0.07728422
116	0xbdbd9168	-0.0925625
117	0xbd6eace3	-0.058270346
118	0x3da83757	0.0821368
119	0xbdcacd25	-0.099024095
120	0x3dd70ba8	0.1050027
121	0xbd2ac914	-0.04169567
122	0xbe5a266c	-0.2130372
123	0x3cbd5398	0.02311115
124	0x3dd87a0a	0.10570152
125	0xbdd17a0b	-0.10228356
126	0x3e1f197a	0.15537062
127	0xbe18003e	-0.14843842
128	0xbd1a48cc	-0.03766708
129	0xbdb02fa1	-0.086028345
130	0x3d2a2bc7	0.041545656
131	0x3e82ceed	0.25548497
132	0xbe5047bd	-0.20339866
133	0x3eb5dc83	0.355198
134	0xbd772605	-0.060338993
135	0xbcb661e4	-0.022263475
136	0xbdf5f1e1	-0.12009025
137	0x3dd3620b	0.103214346
138	0xbd36e1ee	-0.044649057
139	0x3e96dabd	0.2946376
140	0xbdcf351c	-0.10117552
141	0x3d6377ed	0.055534292
142	0x3e10df73	0.14147739
143	0x3e614bed	0.2200162
144	0xbe0d72b3	-0.13813286
145	0xbdcdba91	-0.1004535
146	0x3a37ca7b	0.0007011068
147	0x3da0e4d3	0.07856145
148	0x3c64316f	0.0139278015
149	0xbdab362d	-0.083599426
150	0xbde206af	-0.11036431
151	0x3e1380ea	0.14404646
152	0xbe6a8b3d	-0.22904678
153	0xbe1a4346	-0.15064725
154	0xbddf05b0	-0.10889757
155	0xbd1546a7	-0.036444332
156	0x3da46b00	0.08028221
157	0xbcd0c7ae	-0.02548584
158	0xbde6c13f	-0.112673275
159	0xbd8c1985	-0.06840805
160	0x3cf16435	0.029466728
161	0xbe5eebeb	-0.21769683
162	0xbe0191c1	-0.12653257
163	0x3d27d067	0.040970232
164	0x3db3f5b2	0.08787097
165	0xbcc8d8cf	-0.024517445
166	0xbd8ed04e	-0.06973325
167	0x3d5dc1cf	0.05413991
168	0x3e029a30	0.1275413
169	0x3df69ab3	0.12041225
170	0x3de7d947	0.11320739
171	0x3ca869c7	0.020558251
172	0x3d81fc40	0.06346941
173	0xbde17e6d	-0.11010442
174	0xbccfccbd	-0.025366182
175	0x3e69676c	0.22793359
176	0x3e2c5330	0.16828609
177	0x3da3e684	0.08002952
178	0xbc869410	-0.016428024
179	0xbc041870	-0.008062467
180	0xbdd46332	-0.103704825
181	0xbe00f1fc	-0.1259231
182	0xbdf08ccf	-0.11745607
183	0xbd9df2a4	-0.07712296
184	0x3c3fb13c	0.011699971
185	0xbcf7de75	-0.030257443
186	0xbe90e32d	-0.2829832
187	0xbdb35f59	-0.087584205
188	0x3e5eea9a	0.21769181
189	0xbc4f3073	-0.012645829
190	0xbc063c27	-0.008193052
191	0x3cb4f309	0.022088544
192	0xbc78ed98	-0.0151933655
193	0x3c68efc3	0.01421732
194	0x3b1da11a	0.0024052323
195	0x3bac2d48	0.0052544214
196	0xbc1bc68d	-0.009507787
197	0xbcaf8a08	-0.021428123
198	0xbe1aecf8	-0.15129459
199	0xbdad9c12	-0.08477034
200	0x3d3bfacb	0.04589347
201	0xbda0c854	-0.078507096
202	0x3bdc915d	0.006731196
203	0xbd11fd45	-0.035641927
204	0x3e4bfd54	0.19920856
205	0xbd7861a9	-0.06064001
206	0x3cbadc1b	0.022810033
207	0x3d8b8caf	0.06813943
208	0x3ae762b1	0.0017653314
209	0xbe09d54b	-0.13460271
210	0x3e2137d1	0.15743949
211	0xbe027047	-0.12738143
212	0x3e970712	0.29497582
213	0xbe46b942	-0.19406608
214	0x3d2f6274	0.0428185
215	0xbdecd98c	-0.11564931
216	0xbe7465e2	-0.2386699
217	0x3df567c5	0.11982683
218	0xbd0d2557	-0.03445944
219	0x3e1de0ce	0.15417787
220	0xbd467c77	-0.048458543
221	0x3daa01a4	0.08301094
222	0xbdf59889	-0.119919844
223	0xbd886282	-0.06659414
224	0x3e7202cf	0.23633884
225	0x3db477ec	0.08811936
226	0x3eaa3076	0.33240098
227	0x3e027425	0.12739618
228	0x3dd31c7b	0.103081666
229	0xbcd98df9	-0.026556956
230	0x3d7df233	0.061998557
231	0xbbe6f596	-0.007048319
232	0x3e35f16c	0.17767876
233	0x3d0c98a2	0.03432525
234	0xbc9de253	-0.019272959
235	0xbb66a688	-0.0035194475
236	0x3dd4c214	0.1038858
237	0x3d9e2366	0.077215955
238	0x3db74796	0.08949201
239	0xbe4de60f	-0.20107292
240	0x3e8b9c0a	0.27267486
241	0xbe3d03d1	-0.18458487
242	0xbe009bc9	-0.12559427
243	0x3c6a525b	0.014301862
244	0x3d9379f6	0.072009966
245	0x3e098b6e	0.13432094
246	0x3d4816e6	0.048849963
247	0xbb18878c	-0.0023274152
248	0xbc00a246	-0.007851189
249	0xbd7ac70f	-0.061224993
250	0x3d9cdff7	0.076599054
251	0xbd64d134	-0.055863574
252	0x3d6c6e63	0.05772246
253	0xbcc248cf	-0.023716358
254	0x3e9326fc	0.2874068
255	0x3e1b931b	0.15192835

conv4.bias f4 [64]
0	0xbe1a254e	-0.15053293
1	0x3cbde711	0.02318147
2	0x3dbeed5e	0.09322618
3	0xbcdf429a	-0.027253438
4	0x3d0bc526	0.034123562
5	0xbd877e96	-0.06615941
6	0x3d5a17e0	0.053245425
7	0x3d8dbc78	0.06920713
8	0x3c3b03ed	0.01141451
9	0xbdb21bac	-0.08696684
10	0x3c88cdcb	0.016699692
11	0x39534977	0.00020149896
12	0x3d136996	0.035989366
13	0xbda9507a	-0.08267303
14	0xbd7a7bf0	-0.061153352
15	0x3dad1bca	0.08452566
16	0xbb91d594	-0.0044505093
17	0xbdc7bf23	-0.09753253
18	0x3d8bb129	0.068209
19	0xbd7e06c7	-0.062018182
20	0x3decba48	0.11558968
21	0x3ce7e844	0.028308995
22	0xbda3818b	-0.07983693
23	0xbdf2c72a	-0.11854394
24	0xbbccf808	-0.0062551536
25	0x3d12f07e	0.035873882
26	0x3dfc25e5	0.12311915
27	0x3e480295	0.19532235
28	0xbd70ade2	-0.058759578
29	0x3b811488	0.003939215
30	0xbcffd4ed	-0.03122946
31	0xbcb5ca58	-0.022191212
32	0xbbf858cb	-0.0075789443
33	0xbd0778f6	-0.03307434
34	0xbd5bf6b9	-0.05370209
35	0xbd288315	-0.041140635
36	0xbe2f5461	-0.17122032
37	0x3da4bd7e	0.08043955
38	0xbc235951	-0.009970025
39	0xbc04c04d	-0.008102489
40	0xbd4154cb	-0.047200006
41	0x3d0e3c4e	0.03472548
42	0x3d0ae605	0.03391077
43	0x3d342edd	0.043990005
44	0xbd600d64	-0.05470027
45	0x3d93a421	0.072090395
46	0xbb2d2e39	-0.0026425256
47	0xbdd4fd39	-0.10399861
48	0xbd92e3b4	-0.07172337
49	0xbd63a4f3	-0.05557723
50	0x3db36de3	0.087611936
51	0x3cac6ac8	0.021047011
52	0xbe01c594	-0.12673026
53	0xbd0f60c0	-0.035004377
54	0x3e094c30	0.1340797
55	0xbe35dded	-0.17760439
56	0xbd7961f0	-0.060884416
57	0xbd0d19d6	-0.034448467
58	0x3d6434ac	0.055714294
59	0xbd39eed6	-0.045393787
60	0x3ccad93d	0.02476179
61	0xbd9f03e0	-0.07764411
62	0xbe19b9de	-0.15012309
63	0xbd77020d	-0.06030469

conv5.weight f4 [64, 64, 3, 3]
0	0x3bbad6c3	0.005701871
1	0xbd22acc5	-0.039715547
2	0xbd4384ef	-0.047734197
3	0xbd8556a0	-0.06510663
4	0xbd0d6d9b	-0.034528356
5	0xbda16ff8	-0.078826845
6	0x3d4365a1	0.047704343
7	0xbcfe7077	-0.031059487
8	0x3cb6232d	0.02223357
9	0xbd12e96a	-0.035867132
10	0x3c53b5c4	0.012921754
11	0x3bc55559	0.006022137
12	0x3c85e51a	0.016344596
13	0xbcffed29	-0.031241016
14	0x3c4a2062	0.012336822
15	0xbd811a6f	-0.0630387
16	0xbab18651	-0.0013544058
17	0xbadd9524	-0.0016905409
18	0x3c925fa5	0.017867872
19	0xbd3504f1	-0.044194166
20	0xbd8b22a9	-0.0679372
21	0xbcfccbef	-0.030858962
22	0xbca213f1	-0.0197849
23	0xbcf6b730	-0.030116647
24	0x3bf7f6b0	0.0075672492
25	0x3b6f6546	0.003652887
26	0xbd4f7b63	-0.05065478
27	0xbd6c4cbd	-0.05769037
28	0xbd976760	-0.07392764
29	0xbd850fbf	-0.06497144
30	0xbd7ac35e	-0.061221473
31	0xbd56274f	-0.05228358
32	0xbc19e363	-0.009392592
33	0x3a942601	0.001130283
34	0xbcc2883b	-0.0237466
35	0x3ad1b52e	0.001599943
36	0x3c2d05d4	0.010560472
37	0xbb226649	-0.0024780205
38	0xbd3e35d6	-0.04643806
39	0x3b72a820	0.003702648
40	0x3ce8a203	0.028397566
41	0xbc21ed1a	-0.00988319
42	0x3b3e89fd	0.0029073947
43	0xbd44b0e8	-0.048020273
44	0xbb0c7b95	-0.0021435965
45	0x3d01b194	0.031663492
46	0x3c7ae1c3	0.015312615
47	0x3d21b0ca	0.03947524
48	0x3c7be892	0.015375273
49	0xbd13d7c5	-0.036094446
50	0xbbd2f98f	-0.006438441
51	0x3d51901e	0.05116283
52	0xbbe83914	-0.0070868824
53	0xbc5824d4	-0.013192374
54	0x3bd81da4	0.0065953303
55	0xbd685352	-0.056720085
56	0xbd52a0df	-0.05142295
57	0xbbcf554a	-0.006327306
58	0xbd37e5eb	-0.044897
59	0x3ba75fc0	0.00510785
60	0x3bafa60f	0.005360372
61	0xbd2b8a0c	-0.0418797
62	0x3d32db4f	0.04366618
63	0x3cbdfa03	0.023190504
64	0x3bfdfc10	0.0077509955
65	0x3d0c6bc2	0.034282453
66	0xbc4ea796	-0.012613198
67	0xbc622a56	-0.013804039
68	0x3cc29035	0.023750404
69	0x3c8fec13	0.017568624
70	0x3c0f4961	0.008745522
71	0xbc16f065	-0.009212588
72	0xbce00309	-0.027345197
73	0x3cc64ab8	0.02420555
74	0x3caadeb2	0.020858143
75	0xbcf086eb	-0.029361209
76	0x3ba19d7a	0.0049321027
77	0xbd00a80c	-0.031410262
78	0xbce26aca	-0.027638812
79	0xbceb6a0e	-0.028737094
80	0x3cb4cba9	0.022069769
81	0x3ca62aca	0.020284075
82	0x3d10515c	0.03523384
83	0xbd239762	-0.03993929
84	0x3d4dc542	0.050236948
85	0x3cd9d1aa	0.026589233
86	0xbcbe6e92	-0.023246083
87	0x3ced7670	0.02898714
88	0xbb8ca766	-0.0042924164
89	0xbb8b512e	-0.0042516207
90	0x3c3bad00	0.011454821
91	0xbd284200	-0.041078568
92	0x3ca7196a	0.02039786
93	0x3d0fcc6f	0.035107072
94	0x3c62b922	0.013838084
95	0x3cf592a4	0.02997715
96	0x3cee8e18	0.02912049
97	0xbbfd4678	-0.007729348
98	0x3cb95c6a	0.022627074
99	0xbc1524ae	-0.009102983
100	0xbbfe5cde	-0.0077625355
101	0xbcfebda7	-0.031096293
102	0x3cfd6491	0.030931743
103	0xbbc09b67	-0.0058779004
104	0xbc850329	-0.016236858
105	0xbc199b11	-0.00937535
106	0xbaaf3e58	-0.001337002
107	0xbcf52038	-0.02992259
108	0x3d01e43e	0.03171181
109	0x3c28e6a5	0.010308896
110	0xbd265df4	-0.040616944
111	0xbcecb688	-0.028895631
112	0x3c9e0877	0.019291146
113	0xbd1b1d60	-0.03786981
114	0x3c8d7942	0.017269734
115	0xbd10992f	-0.035302337
116	0x3ce00072	0.027343962
117	0x3c3e00b6	0.011596849
118	0x3bba2e2f	0.005681775
119	0xbd279348	-0.040911943
120	0xbc0ca236	-0.008583596
121	0x3c73942d	0.014866871
122	0xbccc5ea2	-0.024947468
123	0xbcbab233	-0.02279005
124	0xbce073e4	-0.027399011
125	0xbd566814	-0.05234535
126	0x3d3d3e70	0.046202123
127	0xbd20b554	-0.039235428
128	0xbc9a4ade	-0.018834528
129	0x3b405314	0.0029346393
130	0x3ca5e00a	0.020248432
131	0x3b9b4683	0.0047386303
132	0xbd1b6bb8	-0.037944525
133	0x3cd4df34	0.025985338
134	0x3d1e9c18	0.03872308
135	0xbccc3526	-0.024927687
136	0xbc592289	-0.013252863
137	0x3c86474c	0.016391419
138	0xbc1f6255	-0.009728034
139	0xbc10b370	-0.008831844
140	0xbd0bb420	-0.034107327
141	0xbd0a49cf	-0.033761796
142	0xbcebb77f	-0.028774021
143	0x3ca893f6	0.020578366
144	0xbcfc94bb	-0.030832639
145	0xbca62021	-0.020278992
146	0x3cc532dd	0.024072105
147	0xbd17cd15	-0.037060816
148	0xbc7dfb98	-0.015501879
149	0x3d3b8360	0.045779586
150	0x3c32e9b8	0.010919981
151	0xbd0bfb20	-0.03417504
152	0x3cf0fd7b	0.029417744
153	0x3d03c46c	0.032169744
154	0x3d821f57	0.06353634
155	0xbcadc30e	-0.021211173
156	0x3d82cd1a	0.06386776
157	0xba7cd4cf	-0.0009644748
158	0x3d60e6e2	0.054907687
159	0x3bc19c4e	0.0059085255
160	0xbc2a107d	-0.010379908
161	0xbd2da878	-0.042396992
162	0xbd4c9f5b	-0.04995666
163	0xbdae1369	-0.08499796
164	0xbd8c2d39	-0.06844563
165	0x3ba3a802	0.0049943933
166	0xbcb98f61	-0.022651376
167	0xbc8b5250	-0.017007023
168	0x3c63a380	0.013893962
169	0x3af54247	0.0018711769
170	0x3b1911ec	0.002335663
171	0xbd7e9e9d	-0.062162984
172	0xbd6b6e69	-0.057478342
173	0xbd0dba54	-0.034601524
174	0xbd3c1d4a	-0.04592637
175	0xbd1b9d90	-0.03799206
176	0x3cb56192	0.022141252
177	0xbcbd4421	-0.023103775
178	0xbd3fccbf	-0.04682612
179	0xbcbef6da	-0.023311067
180	0x3d15edef	0.036603864
181	0x3c376b49	0.011195012
182	0x3d0fa1ab	0.035066288
183	0x3d0ddabd	0.034632433
184	0xbd0c9bd3	-0.034328293
185	0x3d0556a6	0.032553338
186	0x3b914fe5	0.004434573
187	0xbc1de920	-0.009638101
188	0xbc7605b2	-0.015016006
189	0xbced9ae0	-0.029004514
190	0xbb1a2faa	-0.0023526945
191	0xbac64874	-0.0015127794
192	0xbcb77069	-0.022392469
193	0xbd431178	-0.04762408
194	0x3c082ff0	0.00831221
195	0x3c3ccf25	0.0115239965
196	0xbc4c0841	-0.01245314
197	0x3a49549f	0.0007680151
198	0xbd0d121d	-0.034441102
199	0x3c3794da	0.011204923
200	0x3cfe843e	0.031068917
201	0x3c3c70ee	0.011501534
202	0x3d8a39af	0.067492835
203	0x3b23a0cd	0.002496767
204	0x3c9e0bc0	0.019292712
205	0xba95f0a7	-0.0011439518
206	0x3c9af009	0.018913286
207	0xbd2262d4	-0.03964503
208	0xbcbd3972	-0.023098681
209	0xbccbf708	-0.024898067
210	0xbd05ac47	-0.032635
211	0xbb66e7d6	-0.00352334
212	0x3d8cad43	0.068689846
213	0xbce10870	-0.027469844
214	0x3d4b5ada	0.04964719
215	0x3d4aede7	0.049543288
216	0xbd0b7fa6	-0.034057282
217	0x3cb6822c	0.022278868
218	0x3c805fd6	0.015670698
219	0xbd22afca	-0.039718427
220	0xbd2c5db1	-0.04208154
221	0xbbcdebac	-0.006284198
222	0xbc219c12	-0.00986387
223	0x3d1cdfbd	0.03829931
224	0xbd748eaf	-0.059706386
225	0x3cc2211c	0.023697428
226	0x3b77d463	0.0037815801
227	0xbcb02b81	-0.02150512
228	0xbcb624b3	-0.022234296
229	0x3bb9d5e2	0.005671249
230	0xbb8496f8	-0.004046317
231	0x3c45c498	0.012070797
232	0x3d162534	0.036656573
233	0x3cfccab7	0.03085838
234	0xbbd85b17	-0.0066026556
235	0xbda60129	-0.0810569
236	0xbbd4e5ac	-0.0064971056
237	0xbd6296b0	-0.055319488
238	0xbd931c5c	-0.071831435
239	0xbd7f07f6	-0.06226345
240	0xbd0cf9c0	-0.034417868
241	0xbbec5461	-0.007212207
242	0x3bbd119c	0.0057699215
243	0xbd46e1ef	-0.04855531
244	0x3cee9617	0.029124303
245	0xbd18185a	-0.0371326
246	0xbd118b36	-0.035533153
247	0xbcd5c08b	-0.026092788
248	0x3be13941	0.0068732803
249	0xbaaefa4f	-0.0013349744
250	0xbd6b24d3	-0.057408165
251	0xbd2bcd37	-0.041943755
252	0xbcc4761a	-0.023982096
253	0xbd2efb01	-0.042719845
254	0x3cc7b313	0.024377381
255	0x3cabe03a	0.020980943

conv5.bias f4 [64]
0	0x3ce5d9e3	0.028057998
1	0x3bcb14c7	0.006197545
2	0xbd31716b	-0.043321054
3	0x3d355b13	0.04427631
4	0x3cdb49f1	0.026768656
5	0xbc4d6c82	-0.012538077
6	0xbd213b51	-0.03936321
7	0xbaca6992	-0.0015442839
8	0xbc8c2348	-0.017106667
9	0xbd44943a	-0.047992922
10	0xbd9dc337	-0.0770325
11	0x3c74887c	0.014925119
12	0xbdaa7c61	-0.08324505
13	0x3cc38740	0.023868203
14	0xbd6af182	-0.057359226
15	0xbcce762b	-0.025202831
16	0xbcd0d923	-0.025494164
17	0xbd4fb199	-0.05070648
18	0xb8fb54a4	-0.00011984378
19	0xbd06565b	-0.0327972
20	0x3c84c55a	0.016207386
21	0xbd39cb87	-0.045360114
22	0xbc8cb221	-0.017174782
23	0x3bedc21a	0.0072558047
24	0xbccc3427	-0.024927212
25	0xbb96956c	-0.004595449
26	0xbd7bb756	-0.06145414
27	0xbd459566	-0.04823818
28	0xbb9c296b	-0.0047656796
29	0xbb62cc06	-0.003460647
30	0xbd064b51	-0.03278667
31	0xbba996e0	-0.0051754564
32	0xbd134108	-0.03595069
33	0x3c5c57a9	0.013448634
34	0x3c4a8c7d	0.012362597
35	0xbd59fb07	-0.053217914
36	0xbd83d268	-0.06436616
37	0xbd425694	-0.04744585
38	0xbd879754	-0.066206604
39	0xbb950f82	-0.004548968
40	0xbd93bc47	-0.072136454
41	0xbd196e2f	-0.037458595
42	0x3d8030e1	0.06259323
43	0xbcc64716	-0.024203818
44	0xbcb9c738	-0.022678003
45	0xbd888655	-0.06666247
46	0xbc85172f	-0.016246406
47	0xbd54aac4	-0.051920667
48	0xbcd4fdf4	-0.026
49	0xbc75ed07	-0.015010125
50	0x3d155ff5	0.036468465
51	0x3b89f0aa	0.0042095976
52	0xbc69f028	-0.014278449
53	0xbd235cae	-0.039883308
54	0xbc7f748d	-0.015591753
55	0xba3b5748	-0.000714649
56	0xbd8605e9	-0.06544096
57	0xbcc8f0c9	-0.024528878
58	0xbbcd44da	-0.0062643113
59	0xbd255e70	-0.040373266
60	0x3cc16c36	0.02361117
61	0xbd93b525	-0.07212285
62	0xbbeca353	-0.007221618
63	0xbd04c381	-0.03241301

conv6.weight f4 [1, 64, 1, 1]
0	0xbab982a1	-0.001415331
1	0x3ac75c75	0.001521005
2	0xbce7224f	-0.028214602
3	0xbdb779b6	-0.089587614
4	0xbdf4b6cc	-0.11948928
5	0xbc86bc0c	-0.01644709
6	0x3d9b546b	0.07584461
7	0xbd818b52	-0.06325401
8	0x3d903a0a	0.0704232
9	0x3d84ab5a	0.06477995
10	0xbdef082f	-0.11671483
11	0xbd0afde2	-0.033933528
12	0x3bc18497	0.0059056985
13	0xbb369523	-0.0027859889
14	0xbbbadec8	-0.005702827
15	0x3cc5c0f0	0.024139851
16	0xbd9861ec	-0.07440552
17	0x3a755f36	0.0009360196
18	0xbcbed69b	-0.023295691
19	0x3c22af27	0.009929455
20	0x3db71283	0.08939078
21	0xbc8d94d2	-0.017282877
22	0x3dc03e0b	0.09386834
23	0xba8fe53f	-0.0010978355
24	0xbddc04ae	-0.1074308
25	0x3b96f454	0.004606763
26	0x3ca588d5	0.020206848
27	0xbd39541a	-0.04524622
28	0x3d93a477	0.072091036
29	0xbdb4a7cf	-0.088210694
30	0x3d9824e2	0.0742891
31	0xbe519016	-0.2046512
32	0xbd02a849	-0.03189877
33	0xbdd9f046	-0.10641532
34	0xbdb77e59	-0.08959646
35	0xbb0f46e6	-0.0021862327
36	0x3d03e63e	0.032201998
37	0xbda111d0	-0.078647256
38	0x3c822794	0.015888013
39	0x3c9ccc82	0.019140486
40	0x3b03ec46	0.0020129844
41	0x3d03ccbe	0.03217768
42	0x3d0059c1	0.031335596
43	0x3d172de6	0.036909007
44	0xbe31a382	-0.1734753
45	0xbe670bd6	-0.22563109
46	0xbdbcb847	-0.092148356
47	0xbc173b6a	-0.009230474
48	0xbd5134e6	-0.05107584
49	0x3c776b69	0.015101292
50	0xbd128f54	-0.03578122
51	0x3d1f406c	0.038879797
52	0xbd9b334f	-0.07578146
53	0x3cca78dd	0.024715835
54	0xbe248deb	-0.16069762
55	0xbb957741	-0.0045613353
56	0xbc05a011	-0.008155839
57	0xbd3aa1c2	-0.04556442
58	0xbd8f717d	-0.07004068
59	0x3d4a46df	0.049383994
60	0x3dd7a6c3	0.10529854
61	0x3d15ba45	0.036554594
62	0xbc238c7f	-0.009982227
63	0x3d988a26	0.07448225
