pretrained_models/model2.pt (torch, 768410 bytes, 13 tensors)

conv1.weight f4 [64, 11, 3, 3]
-0.081700996 -0.05873731 -0.052670464 -0.029852472 -0.08406757 -0.07870727 0.04422246 -0.014389014
0.02750366 0.076836966 -0.0711342 -0.08928155 -0.038655426 -0.03992493 -0.017217021 -0.12941694
-0.062683746 0.0124746775 -0.051741324 -0.050642423 0.012238584 0.044491604 -0.0324963 -0.042265307
0.0329215 -0.09260263 0.035470128 0.08173958 -0.0976583 -0.057339855 -0.0689421 -0.034855235
0.103402935 0.020873722 -0.050745785 0.033967577 -0.080964245 0.069350034 -0.08718403 -0.0016535219
0.105528645 -0.0231798 0.012547075 -0.10435382 -0.039214242 0.0901422 -0.02840512 0.00082237745
-0.0915485 0.093488604 0.032102965 -0.06980056 -0.032733932 0.03636767 0.040319726 0.06386918
-0.08049916 -0.051023383 -0.044733785 -0.063581266 -0.054269437 -0.08485546 -0.02143713 -0.047410302
0.055550996 -0.019455297 0.087342635 0.014399777 -0.04078925 -0.041848607 0.09123838 -0.07320481
0.044487372 0.020340152 0.07423166 -0.06980003 -0.0031783753 -0.022882806 0.037650134 -0.07124694
0.06213888 0.047254644 -0.027375542 -0.026060198 -0.07089492 -0.0065705995 0.047917828 0.06657104
0.021779405 0.08944102 -0.06797279 -0.036623064 0.048321083 -0.0012511143 -0.09203074 -0.0017904503
0.026234629 -0.09942846 0.030109927 0.009267102 0.035078533 0.17176649 0.15851845 0.027913725
0.062257733 0.105672985 0.1278467 0.1698195 -0.07807316 -0.072413586 -0.10065291 -0.09230733
0.062505566 -0.048920546 -0.15011989 -0.08953321 -0.09209591 -0.019991266 -0.11207056 0.037182834
0.28394863 -0.0763331 -0.15906712 -0.060918137 0.11997812 0.09480818 -0.09103815 0.11452027
0.116366565 0.016028332 -0.032126006 0.044741966 0.047353182 -0.0224183 0.1067039 -0.13283394
0.048389625 0.026079843 -0.109691426 0.2905876 0.14370362 0.06813302 0.07575897 -0.0043277275
0.017426904 0.09041826 0.015273546 -0.24044871 0.5178997 0.19353424 0.124117225 -0.054407924
-0.089431055 0.07110659 -0.12942825 0.024151651 -0.07536338 0.5047499 0.12113052 0.024199657
-0.031498443 0.04463231 0.04106104 -0.09319424 -0.14443815 -0.11668797 0.12872396 -0.03111931
0.034276046 -0.07948666 -0.02768474 0.07748422 0.03356625 -0.06649819 -0.100448996 -0.05629323
-0.072645076 0.07158734 -0.15433727 -0.11497632 -0.07858459 0.0446504 -0.08610066 -0.0953507
0.060658406 0.09079063 0.15111448 -0.06748097 -0.054437798 0.053340014 -0.02877382 0.0140784355
0.029396903 0.063486256 -0.026715845 0.098941594 -0.09218121 0.050264843 -0.051647954 -0.075234205
-0.117248885 0.02276984 0.032486252 -0.087648705 -0.09791382 -0.05816165 0.04255331 -0.097116314
0.049491808 -0.07461701 -0.051866785 -0.09519323 -0.08500712 -0.12343336 0.048726004 -0.029997183
-0.066725865 -0.0401387 -0.08651154 0.058730178 -0.0014697117 -0.033651408 0.044428404 0.07375777
-0.09564734 0.055516988 -0.015846698 -0.0042972434 -0.011587302 0.01719164 -0.02055635 -0.093319595
-0.05567124 -0.074915074 -0.01242748 0.061462004 0.012759017 0.0004335425 -0.04120342 -0.05986785
0.101216115 -0.08091385 -0.054431852 -0.053521488 -0.009731601 -0.054232284 -0.07238603 -0.09602672
-0.09899159 0.026272021 0.08145663 -0.0073039006 0.02267654 0.04875524 0.04298611 -0.09422584
00000000: da52 a7bd 8996 70bd fcbc 57bd 2c8d f4bc
00000010: 9e2b acbd 4731 a1bd 9c22 353d e6bf 6bbc
00000020: 5b4f e13c b35c 9d3d cfae 91bd 3fd9 b6bd
00000030: 2755 1ebd 5388 23bd b60a 8dbc e085 04be
00000040: 5660 80bd 9762 4c3c b6ee 53bd 6e6e 4fbd
00000050: 5884 483c d43c 363d d71a 05bd 631e 2dbd
00000060: b2d8 063d 73a6 bdbd 2049 113d 1567 a73d
00000070: 1301 c8bd 32dd 6abd 8431 8dbd 5dc4 0ebd
00000080: ebc4 d33d 5eff aa3c d0da 4fbd 9621 0b3d
00000090: 95d0 a5bd 6407 8e3d 8a8d b2bd fdba d8ba
000000a0: 671f d83d 90e3 bdbc 3f92 4d3c 75b7 d5bd
000000b0: 1d9f 20bd 799c b83d dbb1 e8bc d194 573a
000000c0: c87d bbbd f476 bf3d 667e 033d 99f3 8ebd
000000d0: 0414 06bd 44f6 143d 4c26 253d d8cd 823d
000000e0: bedc a4bd e5fd 50bd c63a 37bd e536 82bd
000000f0: a149 5ebd b3c8 adbd ec9c afbc 4e31 42bd
00000100: 7189 633d b760 9fbc b2e0 b23d 0bed 6b3c
00000110: a112 27bd 7269 2bbd 30db ba3d 67ec 95bd
00000120: 6438 363d 64a0 a63c c506 983d 51f3 8ebd
00000130: 4a4c 50bb b974 bbbc 0737 1a3d eae9 91bd
00000140: 5785 7e3d 168e 413d ac42 e0bc 327c d5bc
00000150: 5b31 91bd 2f4e d7bb 7c45 443d 6656 883d
00000160: b96a b23c da2c b73d 5135 8bbd 1102 16bd
00000170: 54ec 453d 6efc a3ba 9d7a bcbd 8bad eaba
00000180: 01ea d63c 26a1 cbbd 18a9 f63c 0bd5 173c
00000190: 82ae 0f3d 8ee3 2f3e a952 223e 53ab e43c
000001a0: f701 7f3d 146b d83d 3fea 023e 2ae5 2d3e
000001b0: d2e4 9fbd 934d 94bd 1d23 cebd a00b bdbd
000001c0: eb02 803d e960 48bd 07b9 19be 305d b7bd
000001d0: c89c bcbd b9c4 a3bc 4085 e5bd 074d 183d
000001e0: b761 913e 8754 9cbd 7ee2 22be 4c85 79bd
000001f0: 17b7 f53d cb2a c23d 3672 babd 9a89 ea3d
00000200: 9851 ee3d d94d 833c 8f96 03bd 5a43 373d
00000210: 69f5 413d 95a6 b7bc 9387 da3d 9f05 08be
00000220: 3334 463d 65a5 d53c e6a5 e0bd e6c7 943e
00000230: 0b27 133e 5389 8b3d 8527 9b3d 9ccf 8dbb
00000240: dec2 8e3c 352d b93d e53d 7a3c 3038 76be
00000250: 1395 043f d72d 463e 2c31 fe3d d8da 5ebd
00000260: a127 b7bd 55a0 913d d788 04be afd9 c53c
00000270: 1e58 9abd 4a37 013f 4713 f83d 5c3e c63c
00000280: 8304 01bd 5ed0 363d 9f2f 283d 9fdc bebd
00000290: 98e7 13be 1afa eebd 37d0 033e eced febc
000002a0: 0a65 0c3d e7c9 a2bd 1ccb e2bc 0cb0 9e3d
000002b0: c47c 093d 3430 88bd 34b8 cdbd bb93 66bd
000002c0: f1c6 94bd 629c 923d 970a 1ebe b478 ebbd
000002d0: f5f0 a0bd 56e3 363d 8b55 b0bd 3a47 c3bd
000002e0: f374 783d 70f0 b93d c1bd 1a3e 7633 8abd
000002f0: 2bfa 5ebd 0f7b 5a3d 13b7 ebbc 3da9 663c
00000300: c6d1 f03c 1505 823d 30db dabc e4a1 ca3d
00000310: 81c9 bcbd 82e2 4d3d ce8c 53bd 6414 9abd
00000320: 2f20 f0bd d187 ba3c 4e10 053d 2a81 b3bd
00000330: 0a87 c8bd e93a 6ebd 614c 2e3d ebe4 c6bd
00000340: ecb7 4a3d ced0 98bd 4472 54bd abf4 c2bd
00000350: 3718 aebd a1ca fcbd eb94 473d a7bc f5bc
00000360: 92a7 88bd 7a68 24bd f62c b1bd 0e8f 703d
00000370: 57a3 c0ba 0fd6 09bd 8ffa 353d 500e 973d
00000380: c1e2 c3bd c865 633d efd0 81bc e4cf 8cbb
00000390: abd8 3dbc 7bd5 8c3c ca65 a8bc 581e bfbd
000003a0: 8707 64bd 136d 99bd a19c 4bbc 95bf 7b3d
000003b0: 320b 513c 174d e339 ebc4 28bd fe37 75bd
000003c0: 654a cf3d 29b6 a5bd eff3 5ebd 5939 5bbd
000003d0: 4b71 1fbc ac22 5ebd 203f 94bd a8a9 c4bd
000003e0: 1abc cabd 6c38 d73c bcd2 a63d 8f55 efbb
000003f0: 27c4 b93c 93b3 473d 3412 303d 7af9 c0bd

conv1.bias f4 [64]
-0.08736136 0.007880835 0.088606305 0.03463088 -0.04807046 -0.09570236 -0.12599471 0.02271042
-0.09777073 0.024812296 -0.101671584 0.046774834 -0.057371575 -0.060666863 -0.11219412 -0.12092137
0.0054103783 -0.08064692 -0.031849004 -0.100978784 -0.098241426 0.030985555 0.07310121 0.11983532
-0.013115411 0.03151826 -0.09035142 -0.025269186 0.1069809 -0.026077464 -0.08292746 -0.016066676
-0.036198433 0.043842133 -0.032664146 0.01641025 0.013842847 -0.035778586 -0.11370676 0.04960738
-0.06885831 -0.09431534 -0.010090439 -0.03457606 -0.0684482 -0.12848465 -0.052170463 0.048020776
-0.11422503 0.109838516 0.060875718 -0.004032267 -0.099471435 -0.048679706 -0.1581595 0.029488672
-0.16119236 0.007398199 -0.110463284 -0.09942952 -0.065770954 0.027808983 -0.06732241 -0.07843902
00000000: 83ea b2bd 9e1e 013c 3977 b53d 1cd9 0d3d
00000010: 88e5 44bd 99ff c3bd c204 01be 340b ba3c
00000020: 053c c8bd 2843 cb3c 3139 d0bd f896 3f3d
00000030: 75fe 6abd d17d 78bd 08c6 e5bd a0a5 f7bd
00000040: 8b49 b13b 362a a5bd 1a74 02bd f7cd cebd
00000050: cd32 c9bd 6bd5 fd3c 16b6 953d 386c f53d
00000060: 05e2 56bc 4a19 013d 2a0a b9bd 5301 cfbc
00000070: cd18 db3d 68a0 d5bc dfd5 a9bd 439e 83bc
00000080: cf44 14bd cf93 333d d7ca 05bd ca6e 863c
00000090: 1ccd 623c 918c 12bd 17df e8bd 1c31 4b3d
000000a0: 9605 8dbd 6728 c1bd 5e52 25bc a09f 0dbd
000000b0: 922e 8cbd 7b91 03be b2b0 55bd 6fb1 443d
000000c0: d0ee e9bd 04f3 e03d d158 793d 1b21 84bb
000000d0: aeb7 cbbd 5f64 47bd 90f4 21be 3a92 f13c
000000e0: 9c0f 25be 976c f23b 933a e2bd b4a1 cbbd
000000f0: ecb2 86bd aacf e33c 55e0 89bd a3a4 a0bd

conv2.weight f4 [64, 64, 3, 3]
0.0039694146 0.032695215 0.02732014 0.016478851 -0.0054488787 0.023136215 -0.032015473 0.036291335
0.016485184 -0.03478627 0.059483007 -0.029036406 -0.04585674 -0.045454167 0.059401363 -0.05852343
-0.042925637 0.061226685 -0.040601943 0.015032834 0.008222342 -0.0075824363 -0.027685732 -0.0075990064
-0.029878702 -0.034922007 0.023766305 -0.025652213 -0.06477041 -0.0787803 -0.019221133 -0.083564885
-0.04387695 -0.059515163 -0.06969505 -0.0944847 -0.06012177 0.07257645 -0.015627779 -0.03214771
0.04210762 -0.07041331 0.018914277 -0.07683885 -0.10738949 -0.057454914 -0.051631585 -0.09985512
-0.03830444 -0.021246506 -0.05821457 -0.010516851 -0.053332802 -0.065889426 -0.104764625 -0.047451567
-0.0029023401 -0.016663421 -0.07062228 -0.046206713 -0.050488655 -0.091876194 -0.004622626 -0.06602705
0.008375068 0.011188666 -0.10262845 -0.08305126 -0.059178174 0.008665856 -0.0043669795 -0.06734427
-0.04237933 -0.0472213 -0.020191371 -0.00025267183 -0.07574103 -0.025914937 -0.017732725 -0.064828776
-0.031077605 0.009067326 -0.036037795 -0.03740884 0.012693657 -0.010232098 0.001881106 0.08957272
-0.021502912 0.08351055 0.011539539 0.01768028 -0.044571098 0.02186157 -0.019354235 -0.033314012
0.04188371 -0.07865831 0.021319082 0.03555175 -0.013876817 -0.023576245 -0.087296136 0.04763755
-0.039296567 6.53831e-05 -0.00500114 -0.09226982 -0.044926077 0.03059105 -0.09373128 0.0065762266
-0.06212669 0.015535941 -0.022035338 -0.041224275 0.009874163 0.0055590975 0.02531523 0.02470403
-0.11777098 -0.043275233 0.036356308 0.025114177 -0.032299854 0.011053131 -0.0038955417 0.031357016
-0.009035701 0.026500054 -0.024724128 0.013620635 0.030217625 0.025052102 0.032835167 -0.034250878
-0.07283415 -0.06425483 0.04938441 -0.082186796 -0.08915496 0.027273174 -0.08647353 -0.0995616
0.009876699 -0.08872583 -0.019440716 -0.05616404 -0.010583297 -0.0003410422 -0.07002317 0.004855892
0.012300981 -0.036949668 -0.034398146 -0.12047063 -0.07790053 -0.13426796 -0.051345464 0.04730303
-0.065884724 -0.027563741 0.022517728 0.028373633 0.03410242 -0.045252748 -0.04674059 -0.019264057
-0.035890497 -0.04195974 -0.03605296 -0.08376399 -0.01123897 -0.03884242 -0.08448322 -0.053914066
-0.034989942 -0.036196794 -0.0039502108 -0.0036184932 -0.0818163 -0.01429717 -0.033735782 0.050039083
-0.04069789 -0.05878136 -0.04115427 -0.029910056 0.022725172 -0.03077149 -0.056554403 0.009387678
0.04009376 -0.09642516 -0.07712584 0.045099165 0.0036605068 0.06580188 -0.011817714 0.012433665
-0.045351386 -0.058426097 -0.07621838 -0.042540286 0.006090565 -0.020038888 0.016188515 -0.06471377
-0.05257385 -0.04521996 -0.027469758 0.028991798 -0.033507977 -0.031100312 -0.05993224 -0.096434146
-0.056180414 0.0073687257 -0.028032541 -0.05861519 -0.0045432444 -0.025308782 0.021217905 -0.08756045
0.04359092 0.016404746 -0.05641323 0.009910748 -0.04029511 0.013960725 -0.08960187 -0.0160454
0.0012623671 -0.10830058 0.077827185 -0.0054669864 -0.007754776 -0.042300165 -0.02617457 -0.04255119
-0.107317954 -0.060154233 -0.17096566 -0.020490015 -0.057934243 -0.08701554 -0.022077214 0.036068007
-0.095084436 -0.007749434 0.015609765 -0.04860124 0.016884226 0.031525746 -0.029452939 -0.036726724
00000000: dd11 823b 6beb 053d 7cce df3c a8fe 863c
00000010: 828c b2bb 2988 bd3c a822 03bd 39a6 143d
00000020: f00b 873c 0c7c 0ebd 74a4 733d c2dd edbc
00000030: 47d4 3bbd 262e 3abd d84e 733d 44b6 6fbd
00000040: cbd2 2fbd d5c8 7a3d 394e 26bd 474c 763c
00000050: 00b7 063c 1676 f8bb 30cd e2bc 1601 f9bb
00000060: 2ec4 f4bc 610a 0fbd 8eb1 c23c 9724 d2bc
00000070: 59a6 84bd 9157 a1bd a375 9dbc 1124 abbd
00000080: 51b8 33bd 2cc6 73bd 47bc 8ebd 3281 c1bd
00000090: 3f42 76bd f6a2 943d d405 80bc 51ad 03bd
000000a0: 0a79 2c3d da34 90bd 1df2 9a3c b05d 9dbd
000000b0: 05ef dbbd d855 6bbd a47b 53bd d780 ccbd
000000c0: 1ee5 1cbd 270d aebc 6772 6ebd df4e 2cbc
000000d0: 7f73 5abd 09f1 86bd d68e d6bd 935c 42bd
000000e0: 3035 3ebb ba81 88bc 6aa2 90bd 4043 3dbd
000000f0: 31cd 4ebd 9629 bcbd 6679 97bb 3139 87bd
00000100: 9537 093c ab50 373c dd2e d2bd c716 aabd
00000110: d064 72bd 3cfb 0d3c e118 8fbb cbeb 89bd
00000120: f395 2dbd 1f6b 41bd 6068 a5bc 0a79 84b9
00000130: 1d1e 9bbd 904b d4bc 3844 91bc f3c4 84bd
00000140: 7696 febc 1f8f 143c 5e9c 13bd 033a 19bd
00000150: 0ef9 4f3c 88a4 27bc 728f f63a e771 b73d
00000160: e026 b0bc 9407 ab3d 5610 3d3c 3cd6 903c
00000170: 2f90 36bd 0917 b33c c68c 9ebc 4674 08bd
00000180: 418e 2b3d 9c17 a1bd 5ba5 ae3c b69e 113d
00000190: 975b 63bc f822 c1bc 51c8 b2bd 971f 433d
000001a0: 70f5 20bd 491e 8938 9ae0 a3bb f6f7 bcbd
000001b0: 6804 38bd 159a fa3c 2ff6 bfbd 637d d73b
000001c0: 8e78 7ebd 768a 7e3c 7483 b4bc c9da 28bd
000001d0: 3ec7 213c 1729 b63b e361 cf3c 1b60 ca3c
000001e0: e931 f1bd 5f41 31bd 5aea 143d 3fbc cd3c
000001f0: da4c 04bd 3118 353c 584c 7fbb 3770 003d
00000200: 7a0a 14bc a416 d93c 418a cabc 1529 5f3c
00000210: f48a f73c 113a cd3c 2b7e 063d a64a 0cbd
00000220: 122a 95bd 0998 83bd 4f47 4a3d 8d51 a8bd
00000230: e096 b6bd fe6b df3c 0919 b1bd f4e6 cbbd
00000240: e1d1 213c e3b5 b5bd 2342 9fbc 440c 66bd
00000250: 9165 2dbc e9cd b2b9 4f68 8fbd 2d1e 9f3b
00000260: 0e8a 493c 8958 17bd 12e5 0cbd 4eb9 f6bd
00000270: 508a 9fbd 8a7d 09be 9f4f 52bd d2c0 413d
00000280: 92ee 86bd 5bcd e1bc 1977 b83c d26f e83c
00000290: fbae 0b3d f25a 39bd 1073 3fbd a8cf 9dbc
000002a0: ea01 13bd fadd 2bbd 45ac 13bd 748c abbd
000002b0: a823 38bc 3b19 1fbd 8a05 adbd ffd4 5cbd
000002c0: 9d51 0fbd 1743 14bd c570 81bb 3e24 6dbb
000002d0: 4e8f a7bd ad3e 6abc 882e 0abd c8f5 4c3d
000002e0: d5b2 26bd b9c4 70bd 6191 28bd ef05 f5bc
000002f0: 242a ba3c 7e14 fcbc 97a5 67bd c6ce 193c
00000300: 5b39 243d 8e7a c5bd 27f4 9dbd e7b9 383d
00000310: 1de5 6f3b 23c3 863d 169f 41bc 92b6 4b3c
00000320: 60c2 39bd 3450 6fbd 6218 9cbd b93e 2ebd
00000330: 5d93 c73b 9828 a4bc c79d 843c a788 84bd
00000340: ad57 57bd 9138 39bd 4208 e1bc 3580 ed3c
00000350: a93f 09bd 15c6 febc 827b 75bd 447f c5bd
00000360: 6f1d 66bd 5a75 f13b 80a4 e5bc 7b16 70bd
00000370: 7fdf 94bb 5d54 cfbc 2cd1 ad3c e552 b3bd
00000380: 648c 323d 3f63 863c 8f11 67bd b160 223c
00000390: 7c0c 25bd 86bb 643c 2f81 b7bd a571 83bc
000003a0: 0376 a53a b2cc ddbd dc63 9f3d 6824 b3bb
000003b0: c71b febb f042 2dbd 0d6c d6bc 284a 2ebd
000003c0: 84c9 dbbd 4964 76bd 9f11 2fbe adda a7bc
000003d0: 754c 6dbd 3435 b2bd 46db b4bc 0cbc 133d
000003e0: a1bb c2bd f7ee fdbb 1ac0 7f3c 1812 47bd
000003f0: ca50 8a3c 2421 013d 4a47 f1bc c36e 16bd

conv2.bias f4 [64]
-0.08765894 0.012853673 -0.0039492804 -0.07467939 -0.06669444 -0.034133475 0.06754566 -0.054191552
-0.051339213 -0.042714816 0.05085237 -0.061432973 -0.081809446 -0.07476811 -0.044802822 0.030605875
0.030774118 -0.045601435 -0.08480721 0.03598978 0.011936247 -0.037221376 0.044462353 -0.07347368
-0.07861663 -0.017502798 -0.0032629794 -0.090262026 -0.048020106 -0.058463436 -0.014808913 -0.06060658
-0.026831899 -0.02350466 -0.048750844 0.030309515 -0.11665362 -0.0017638896 -0.06531807 -0.046973106
0.006243198 -0.05434193 -0.026229493 -0.020833354 -0.10891278 -0.014653253 -0.083300084 -0.030262368
-0.026845463 0.006035669 -0.09042041 -0.106925875 -0.02709123 0.07551931 0.03692511 0.0031282392
-0.012596404 0.00441506 0.018555077 -0.051205568 -0.09765939 -0.04956522 -0.05489725 -0.09905369
00000000: 8886 b3bd 3698 523c f768 81bb 82f1 98bd
00000010: 1897 88bd 8bcf 0bbd 6155 8a3d f6f7 5dbd
00000020: 1149 52bd bbf5 2ebd 934a 503d 24a1 7bbd
00000030: b68b a7bd 0620 99bd 2a83 37bd 2cb9 fa3c
00000040: 011a fc3c 92c8 3abd 67af adbd 056a 133d
00000050: 4090 433c 7175 18bd 281e 363d 5e79 96bd
00000060: c101 a1bd 0762 8fbc b6d7 55bb 4cdb b8bd
00000070: bbb0 44bd 5b77 6fbd 15a1 72bc 9b3e 78bd
00000080: 92ce dbbc d88c c0bc f7ae 47bd a94b f83c
00000090: 18e8 eebd 5032 e7ba 7bc5 85bd df66 40bd
000000a0: be93 cc3b a595 5ebd 3cdf d6bc b6aa aabc
000000b0: aa0d dfbd 3314 70bc 3c99 aabd c9e8 f7bc
000000c0: 04eb dbbc dcc6 c53b 562e b9bd f4fb dabd
000000d0: 6dee ddbc dea9 9a3d c93e 173d 2503 4d3b
000000e0: 2661 4ebc 35ac 903b d100 983c eebc 51bd
000000f0: a501 c8bd e604 4bbd f0db 60bd a9dc cabd

conv3.weight f4 [64, 64, 3, 3]
0.025105411 0.036075734 -0.0885301 0.025168553 0.020369753 -0.03933955 0.09624571 -0.03461583
0.10556549 0.02393598 -0.018551044 -0.027303385 0.010844027 -0.10551409 -0.044657275 0.06886762
0.022583555 -0.0052283183 0.04992547 0.07987209 0.024333693 0.04294538 0.0415499 -0.012826778
-0.09411732 0.09087353 -0.1378693 -0.0007189261 0.001208635 0.03626482 -0.01373007 0.029377893
0.004464068 -0.024591625 -0.00091511337 0.039143268 0.0047977646 -0.03742495 -0.038528 0.054524735
0.04735114 -0.05808884 0.005068437 -0.045030355 -0.008454273 -0.0011513348 -0.034652837 0.038026705
-0.024036951 0.075918466 0.004663484 -0.08020668 0.04302114 0.096330024 0.060430706 0.06108384
-0.022976149 0.009819567 0.015066786 -0.08296021 -0.05704502 0.03211929 -0.024260418 0.12861109
-0.14891683 0.09605147 0.106908485 -0.15068467 0.0647909 -0.022186475 -0.12816647 0.11122232
0.094266705 0.12557723 0.018535849 0.07050408 0.014100007 -0.05182347 -0.03300934 0.02621462
0.087395504 -0.15742268 0.017489089 0.10774012 -0.027527485 0.011476576 0.20263493 0.1007782
0.029098852 0.04899017 0.040315144 0.095973395 0.056764927 -0.023703257 0.1124465 0.00943971
-0.091563836 1.6838429e-05 -0.020209322 -0.107849255 -0.0809019 0.11524973 -0.0061031603 -0.09782134
-0.024196822 0.09478119 -0.045338523 -0.005794862 0.025150737 0.03891585 0.16728568 0.027949844
0.10520109 0.08398012 -0.16988893 0.09166344 -0.009443163 -0.060391016 0.023963341 -0.003413533
-0.018938331 -0.015045394 0.038216166 0.04193966 -0.055596605 -0.059557352 0.027075594 -0.0023652734
-0.016040375 -0.023074064 -0.008672245 -0.009002475 0.0039521665 0.021495353 0.0293216 -0.15458101
-0.12988536 0.0057657366 -0.23858945 0.092614196 0.082259215 -0.033969454 -0.13469227 0.023533823
0.054655224 0.041117035 -0.020773256 0.035474274 0.11515449 -0.11148275 -0.16071893 0.056449477
-0.0051537366 -0.03745288 0.003640588 0.1105453 0.022209346 -0.06909493 0.0069356333 0.07071401
-0.05923915 -0.22264984 0.06164139 0.03448672 0.03023193 -0.022303104 0.011005198 -0.047528807
-0.024378218 -0.051063493 -0.04991123 0.0803505 -0.08369485 -0.049881306 -0.014414623 -0.096673846
0.012636028 -0.036256257 -0.039095122 -0.04188379 0.031157523 -0.0002980037 0.026935589 -0.031406265
0.04048905 -0.026120817 -0.03808613 -0.009015884 0.0070821443 0.13088226 -0.055408847 0.028192941
-0.0036336037 -0.06415257 0.08012801 0.017512357 0.00901095 0.07801541 -0.05485976 0.013353911
-0.05149417 -0.37613225 -0.03641013 0.012390159 -0.048658468 -0.08311876 0.19933811 -0.06628241
0.057207976 0.035090238 -0.048459943 -0.007984849 0.029169384 -0.04232427 0.022421706 -0.102029644
-0.023764785 -0.055931237 0.12053236 -0.11107955 0.07739457 0.041618135 -0.23033433 0.014376422
-0.0039091986 -0.13644032 0.064887226 -0.18648145 -0.2793928 0.13262074 -0.16943109 -0.09853798
0.009316248 0.14370042 -0.0077373767 0.02750041 0.02023508 -0.0103669735 0.041991647 0.0030667281
-0.053101853 0.005050415 0.06896063 -0.024521742 0.06403233 -0.011386568 -0.001833966 0.06304234
-0.020893943 0.023590233 -0.0205126 0.097413704 -0.054788124 0.09368174 -0.07528158 -0.20779668
00000000: dda9 cd3c 26c4 133d 454f b5bd 482e ce3c
00000010: 78de a63c 8222 21bd 791c c53d 54c9 0dbd
00000020: b832 d83d 6315 c43c 5cf8 97bc 59ab dfbc
00000030: 25ab 313c c517 d8bd 8cea 36bd 770a 8d3d
00000040: 2601 b93c 5052 abbb a67e 4c3d fa93 a33d
00000050: 7457 c73c 7fe7 2f3d 3a30 2a3d 6827 52bc
00000060: 95c0 c0bd e71b ba3d 9c2d 0dbe 5076 3cba
00000070: 106b 9e3a 6b8a 143d 16f4 60bc e8a9 f03c
00000080: 5147 923b 6074 c9bc 38e4 6fba b154 203d
00000090: 9136 9d3b e84a 19bd 89cf 1dbd 5455 5f3d
000000a0: 45f3 413d 90ee 6dbd 2215 a63b c071 38bd
000000b0: cb83 0abc 63e8 96ba 22f0 0dbd e4c1 1b3d
000000c0: 24e9 c4bc 247b 9b3d 24d0 983b 6643 a4bd
000000d0: ef36 303d ad48 c53d 3086 773d 0c33 7a3d
000000e0: 7a38 bcbc 40e2 203c aeda 763c 0be7 a9bd
000000f0: 0aa8 69bd 848f 033d c9bd c6bc a0b2 033e
00000100: a77d 18be a2b6 c43d d6f2 da3d 154d 1abe
00000110: 17b1 843d 69c0 b5bc 123e 03be 87c8 e33d
00000120: e70e c13d 5197 003e 7ed8 973c 7164 903d
00000130: b703 673c d944 54bd cd34 07bd 0bc0 d63c
00000140: 6afc b23d 6933 21be 4745 8f3c daa6 dc3d
00000150: 5281 e1bc 4008 3c3c 887f 4f3e cd64 ce3d
00000160: b760 ee3c eba9 483d 7e21 253d b38d c43d
00000170: 5782 683d 552d c2bc 5a4a e63d 03a9 1a3c
00000180: d285 bbbd 4040 8d37 058e a5bc 12e0 dcbd
00000190: e5af a5bd 0d08 ec3d 05fd c7bb 8e56 c8bd
000001a0: 6a38 c6bc a41c c23d e3b4 39bd d3e2 bdbb
000001b0: eb08 ce3c 3a66 1f3d f04c 2b3e 12f7 e43c
000001c0: ab73 d73d c5fd ab3d 5df7 2dbe 0bba bb3d
000001d0: 7fb7 1abc 925c 77bd c54e c43c 95b5 5fbb
000001e0: 8f24 9bbc f580 76bc 8e88 1c3d ecc8 2b3d
000001f0: 44b9 63bd 69f2 73bd a3cd dd3c b402 1bbb
00000200: 1b67 83bc d205 bdbc 0816 0ebc 1e7f 13bc
00000210: 2d81 813b 0617 b03c da33 f03c 7c4a 1ebe
00000220: ab00 05be 81ee bc3b cb50 74be 83ac bd3d
00000230: 8577 a83d 8e23 0bbd c5ec 09be 01ca c03c
00000240: 28de 5f3d 566a 283d ad2c aabc 794d 113d
00000250: 1ed6 eb3d 1151 e4bd 8193 24be 9137 673d
00000260: ade0 a8bb 3168 19bd ee96 6e3b 9365 e23d
00000270: 60f0 b53c a581 8dbd 4f44 e33b 82d2 903d
00000280: c0a4 72bd 52fe 63be af7b 7c3d f241 0d3d
00000290: f4a8 f73c 00b5 b6bc 254f 343c 91ad 42bd
000002a0: d4b4 c7bc f427 51bd b86f 4cbd ce8e a43d
000002b0: 3568 abbd 5750 4cbd 502b 6cbc f0fc c5bd
000002c0: 5807 4f3c 7181 14bd 3522 20bd 568e 2bbd
000002d0: 103e ff3c 613d 9cb9 06a8 dc3c dba3 00bd
000002e0: d9d7 253d 53fb d5bc 3400 1cbd 5cb7 13bc
000002f0: 5511 e83b 0006 063e 63f4 62bd e2f4 e63c
00000300: c121 6ebb 6c62 83bd 271a a43d 1376 8f3c
00000310: aaa2 133c 8bc6 9f3d a1b4 60bd 5dca 5a3c
00000320: 8deb 52bd 6894 c0be ca22 15bd 1800 4b3c
00000330: 1a4e 47bd 2b3a aabd 4a1f 4c3e 12bf 87bd
00000340: e952 6a3d c8ba 0f3d ef7d 46bd e2d2 02bc
00000350: a2f4 ee3c 375c 2dbd baad b73c ebf4 d0bd
00000360: 5eae c2bc 2718 65bd acd9 f63d ad7d e3bd
00000370: 0b81 9e3d c777 2a3d c3dc 6bbe 168b 6b3c
00000380: bc18 80bb 03b7 0bbe 98e3 843d fef4 3ebe
00000390: 930c 8fbe bbcd 073e 587f 2dbe 48ce c9bd
000003a0: 2da3 183c 3426 133e d289 fdbb 8a48 e13c
000003b0: 0ac4 a53c 3dda 29bc 6fff 2b3d 29fb 483b
000003c0: 5481 59bd f47d a53b 3b3b 8d3d d2e1 c8bc
000003d0: 6223 833d ba8e 3abc b061 f0ba 581c 813d
000003e0: c629 abbc 4e40 c13c 0a0a a8bc d680 c73d
000003f0: 8369 60bd 36dc bf3d 3b2d 9abd a7c8 54be

conv3.bias f4 [64]
0.051168263 -0.103181735 0.030514244 -0.110475615 -0.07398702 -0.0649484 -0.05617361 0.051180933
0.025474373 -0.10662109 -0.102121145 -0.021653373 -0.06382399 0.04037516 -0.073367305 -0.013998869
-0.030258002 -0.102658495 -0.09802572 0.04006953 -0.035420783 -0.08468229 0.02252683 -0.043429896
-0.10275938 -0.032775994 0.003959159 -0.04234422 -0.061722986 -0.03563535 -0.056804363 -0.024576312
-0.0017055508 -0.064977795 -0.063124105 0.009161605 0.022107996 -0.0700481 -0.01724778 0.0043518348
-0.06783354 0.017205153 -0.097245894 -0.100358784 0.021217078 -0.01044105 -0.08956926 -0.06294666
-0.02711907 0.03936976 -0.071392536 0.020334495 0.013720449 -0.0419002 -0.0074850623 -0.07749095
-0.037214708 -0.088107325 -0.039782632 -0.0773162 -0.04257785 -0.06219033 -0.11411662 -0.04979375
00000000: d095 513d f250 d3bd 02f9 f93c 0a41 e2bd
00000010: 8286 97bd ab03 85bd 4d16 66bd 19a3 513d
00000020: a2af d03c 285c dabd e424 d1bd 6a62 b1bc
00000030: 27b6 82bd 6c60 253d 9941 96bd 835b 65bc
00000040: a1df f7bc 9e3e d2bd b5c1 c8bd f31f 243d
00000050: 6215 11bd e96d adbd 308a b83c 8ce3 31bd
00000060: 8373 d2bd 1f40 06bd d5bb 813b 2271 2dbd
00000070: 3ed1 7cbd 5ff6 11bd b1ab 68bd 4354 c9bc
00000080: ca8c dfba 1413 85bd 3647 81bd 8e1a 163c
00000090: d41b b53c 6175 8fbd 374b 8dbc d699 8e3b
000000a0: 50ec 8abd d2f1 8c3c db28 c7bd e888 cdbd
000000b0: 70cf ad3c f010 2bbc 1770 b7bd 2eea 80bd
000000c0: d028 debc 2f42 213d 4036 92bd 8794 a63c
000000d0: bccb 603c 8b9f 2bbd 4145 f5bb 93b3 9ebd
000000e0: 736e 18bd 9d71 b4bd 1df3 22bd f557 9ebd
000000f0: 1d66 2ebd 4abb 7ebd f9b5 e9bd 88f4 4bbd

conv4.weight f4 [64, 64, 3, 3]
-0.13765585 0.02752232 0.017820328 -0.14003962 0.07206339 -0.022286762 -0.14256918 0.09015131
0.03256503 -0.029362053 -0.009255887 0.08824139 -0.20642675 0.082387894 0.10066869 0.03970176
0.07573279 0.10572346 -0.019439833 -0.08796341 0.008411884 0.06464829 -0.06734872 0.06866167
-0.01840714 -0.015769936 -0.03916064 -0.022638656 0.007100026 0.009043377 0.02249659 -0.023878708
0.011002934 -0.0051214513 -0.025834331 0.05038195 0.12689857 0.0053130183 0.044494934 -0.04135768
-0.03613867 0.08425382 0.03917511 0.03029723 0.0061001154 0.03194125 0.003310206 -0.01098114
0.008176627 0.04048767 -0.023249067 0.013727215 0.026567424 -0.007406638 -0.108956605 0.096133985
-0.049321476 0.13237053 -0.18303698 0.052245684 -0.092992894 -0.18791352 0.018236026 -0.14770524
-0.057638075 0.014970643 -0.020388488 -0.15535398 0.10832413 -0.01936062 0.039864827 -0.04763662
0.0011773409 -0.021868227 -0.10791728 0.051186927 0.028882505 0.056622874 0.0037093803 -0.09906669
-0.0987284 -0.03813646 0.018679371 -0.046087276 -0.0189496 -0.007338448 -0.046581503 -0.031498536
-0.057101525 -0.12402432 -0.068945475 -0.13913013 -0.23726106 -0.14018549 -0.16277884 -0.21625575
-0.06937197 0.11659958 0.07951812 -0.026071554 0.010220632 0.025604578 -0.038905073 -0.024094919
-0.012053728 -0.009079442 0.0056498735 0.039439317 0.13419576 0.08390773 -0.06479463 0.05324747
0.09826603 0.086309016 -0.083728895 -0.35456455 -0.019203318 -0.063054524 -0.0799413 0.13489978
0.02948025 -0.043395743 0.07827252 -0.056434937 0.03438167 0.028482703 0.03428206 -0.03606563
-0.005361021 -0.03506763 -0.02172024 -0.013440554 -0.010572432 -0.01350421 -0.010117356 -0.035410777
-0.02793332 0.0010622708 0.05894064 0.011108146 -0.004461073 0.020049907 0.04892881 0.0006404914
-0.009239055 -0.016796447 -0.05789893 -0.052602682 -0.011413434 -0.06486168 -0.07317488 -0.021315867
0.013117173 0.1555887 0.123800755 -0.022369752 0.046887066 0.15553258 0.22359502 0.055113122
0.2655953 0.0051229135 0.0030410518 -0.11473233 0.18425444 0.14176212 -0.04559311 0.18275201
0.101020254 -0.21726365 0.08589598 -0.14102332 -0.0046200557 0.035387825 0.054978818 -0.09422217
-0.020695781 -0.01091238 2.3438304e-05 0.008797093 0.0137048215 -0.015485331 -0.0060526864 0.043934453
-0.02389329 -0.02042949 0.028344685 -0.013691914 0.021952452 -0.19925714 -0.11287035 0.08359663
-0.03177274 0.13074097 -0.015582278 0.056273956 0.196258 0.06498341 -0.11940144 0.06080087
-0.012191577 0.05541211 0.051102873 0.06504111 -0.012751602 0.07806851 0.07010735 -0.09781751
-0.09029888 0.098350324 -0.07230663 -0.0859486 0.1155968 0.050240714 0.092103146 0.044321932
-0.30370986 -0.16429296 -0.49902165 -0.13315617 -0.13650313 -0.03676356 0.0028285703 -0.13055027
-0.044841487 0.16223735 0.06428754 0.22575694 0.01878814 0.16103753 0.06154444 -0.20086658
0.082099296 0.052182518 0.0237908 -0.011329043 0.01379607 0.032344677 -0.03314677 -0.01172759
-0.031561803 -0.0063952366 -0.031176098 -0.07337532 0.0022366708 -0.010054474 -0.05331284 0.038412303
0.047482166 -0.0101382155 -0.073916696 0.05303311 0.09890891 -0.13237488 0.10369335 0.08941351
00000000: a8f5 0cbe 7d76 e13c f0fb 913c 8c66 0fbe
00000010: f895 933d ba92 b6bc a8fd 11be 40a1 b83d
00000020: e962 053d b088 f0bc 01a6 17bc e7b7 b43d
00000030: 8961 53be fcba a83d 632b ce3d 509e 223d
00000040: cb19 9b3d 8b85 d83d 4940 9fbc 2926 b4bd
00000050: 00d2 093c 5366 843d 20ee 89bd 7d9e 8c3d
00000060: 92ca 96bc f42f 81bc e866 20bd b474 b9bc
00000070: 56a7 e83b ac2a 143c c54a b83c 489d c3bc
00000080: a645 343c d9d1 a7bb 85a2 d3bc 4e5d 4e3d
00000090: b3f1 013e d418 ae3b 5240 363d ac66 29bd
000000a0: 2406 14bd 448d ac3d 1576 203d e631 f83c
000000b0: 7ae3 c73b d4d4 023d 0bf0 583b 3dea 33bc
000000c0: 42f7 053c 66d6 253d d474 bebc 1de8 603c
000000d0: eda3 d93c 62b3 f2bb a424 dfbd e5e1 c43d
000000e0: 5105 4abd 248c 073e 0c6e 3bbe 92ff 553d
000000f0: 0f73 bebd 676c 40be b863 953c 0b40 17be
00000100: e715 6cbd 6e47 753c c205 a7bc 1d15 1fbe
00000110: 0bd9 dd3d 2a9a 9ebc 4d49 233d 9e1e 43bd
00000120: 0151 9a3a ff24 b3bc bc03 ddbd 62a9 513d
00000130: 019b ec3c 63ed 673d 1319 733b 7ae3 cabd
00000140: 1e32 cabd fa34 1cbd 7b05 993c 03c6 3cbd
00000150: 313c 9bbc 5d77 f0bb 3fcc 3ebd 9c04 01bd
00000160: 4ae3 69bd 7600 febd 4933 8dbd 2178 0ebe
00000170: 90f4 72be c98c 0fbe 7faf 26be 2672 5dbe
00000180: e412 8ebd c3cb ee3d 65da a23d 0394 d5bc
00000190: 7074 273c b1c0 d13c ed5a 1fbd b562 c5bc
000001a0: 007d 45bc f1c1 14bc 9322 b93b 1f8b 213d
000001b0: 9d6a 093e d1d7 ab3d 0cb3 84bd 051a 5a3d
000001c0: b33f c93d c8c2 b03d 0e7a abbd 7c89 b5be
000001d0: 4750 9dbc bb22 81bd 44b8 a3bd 2b23 0a3e
000001e0: 9180 f13c bcbf 31bd 584d a03d 5228 67bd
000001f0: cbd3 0c3d 8f54 e93c 586b 0c3d 8eb9 13bd
00000200: 81ab afbb 13a3 0fbd a5ee b1bc c535 5cbc
00000210: fe37 2dbc c340 5dbc 44c3 25bc e40a 11bd
00000220: 6bd4 e4bc e53b 8b3a be6b 713d f1fe 353c
00000230: 312e 92bb b43f a43c 9369 483d a6e6 273a
00000240: 685f 17bc b498 89bc 6e27 6dbd e975 57bd
00000250: 69ff 3abc 33d6 84bd b6dc 95bd 9d9e aebc
00000260: 69e9 563c a552 1f3e 408b fd3d c540 b7bc
00000270: a70c 403d ef43 1f3e 18f6 643e 4cbe 613d
00000280: 1bfc 873e 1dde a73b 624c 473b c9f8 eabd
00000290: 32ad 3c3e 172a 113e d7bf 3abd 5823 3b3e
000002a0: b5e3 ce3d 5d7a 5ebe 3bea af3d 6b68 10be
000002b0: d663 97bb d3f2 103d 7831 613d 8ef7 c0bd
000002c0: 338a a9bc d7c9 32bc 609d c437 af21 103c
000002d0: 308a 603c 30b6 7dbc 9d55 c6bb 9df4 333d
000002e0: dcbb c3bc bf5b a7bc 1d33 e83c 0d54 60bc
000002f0: a1d5 b33c 100a 4cbe 9228 e7bd b634 ab3d
00000300: 2224 02bd f6e0 053e d04c 7fbc 857f 663d
00000310: dbf7 483e 0616 853d be88 f4bd 550a 793d
00000320: 2ebf 47bc cff7 623d 3f51 513d 4634 853d
00000330: 18ec 50bc 62e2 9f3d 7194 8f3d 8c54 c8bd
00000340: 9fee b8bd e56b c93d 8015 94bd d205 b0bd
00000350: 04be ec3d 35c9 4d3d 93a0 bc3d ea8a 353d
00000360: dc7f 9bbe 6a3c 28be c47f ffbe 175a 08be
00000370: 7ac7 0bbe 6395 16bd 895f 393b f8ae 05be
00000380: b5ab 37bd 8c21 263e 30a9 833d d42c 673e
00000390: 96e9 993c 06e7 243e 0616 7c3d f8af 4dbe
000003a0: ad23 a83d 56bd 553d ece4 c23c 739d 39bc
000003b0: e908 623c da7b 043d e8c4 07bd 1425 40bc
000003c0: f346 01bd 228f d1bb 0465 ffbc cd45 96bd
000003d0: 1c95 123b 85bb 24bc 915e 5abd 3856 1d3d
000003e0: a97c 423d c21a 26bc a361 97bd 3f39 593d
000003f0: c190 ca3d 488d 07be 2e5d d43d 6e1e b73d

conv4.bias f4 [64]
0.015983624 -0.063337855 -0.06793407 0.0016599317 0.055600706 0.013071109 -0.068382755 0.04482703
0.028275851 -0.05011643 -0.03666526 -0.029044738 -0.059379034 0.04339134 0.012273758 0.066423744
0.1554493 -0.053106036 -0.09001458 0.002498114 0.016341347 -0.11224428 -0.089595504 -0.036505688
-0.02919402 0.012387559 -0.07508201 -0.0448494 0.028709901 0.0048332824 -0.10039551 -0.16085991
0.004946494 -0.008663198 0.06294412 0.028968414 -0.1161102 -0.0028254082 -0.13869078 -0.00045349752
-0.070244536 0.0050231824 -0.041597657 -0.07700691 -0.04959314 -0.09110566 -0.03385726 -0.09004167
0.04670587 0.10097687 -0.1090678 0.03861629 -0.08394366 -0.00493305 -0.030497788 -0.0070664203
-0.09004314 0.0053780447 -0.057180732 -0.05378134 -0.09612153 -0.09389604 -0.100961044 -0.011938945
00000000: 17f0 823c 47b7 81bd 0521 8bbd 1192 d93a
00000010: 91bd 633d 3428 563c 420c 8cbd 8c9c 373d
00000020: c2a2 e73c e346 4dbd 502e 16bd 3bef edbc
00000030: 6e37 73bd 1ebb 313d df17 493c 2c09 883d
00000040: 1a2e 1f3e b785 59bd 9059 b8bd 66b7 233b
00000050: 4ade 853c 54e0 e5bd d97d b7bd fd86 15bd
00000060: 4c28 efbc 30f5 4a3c 99c4 99bd 01b4 37bd
00000070: 0731 eb3c 8360 9e3b 299c cdbd 76b8 24be
00000080: 3316 a23b 16f0 0dbc d9e8 803d 2b4f ed3c
00000090: 2fcb edbd 7c2a 39bb f504 0ebe 68c3 edb9
000000a0: 5edc 8fbd 8299 a43b 4e62 2abd cdb5 9dbd
000000b0: 2d22 4bbd 9b95 babd e9ad 0abd c467 b8bd
000000c0: a84e 3f3d f6cc ce3d f05e dfbd 1d2c 1e3d
000000d0: a7ea abbd 6ca5 a1bb 7fd6 f9bc 6e8d e7bb
000000e0: 8a68 b8bd 4f3a b03b 5836 6abd d349 5cbd
000000f0: 5ddb c4bd 914c c0bd aac4 cebd 919b 43bc

conv5.weight f4 [64, 64, 3, 3]
-0.012973592 -0.013053345 0.019706707 -0.008362697 -0.02757417 -0.0154488245 -0.06979496 -0.010605123
-0.0077659 -0.035124544 -0.037020158 0.0072129746 0.024219828 0.024023045 0.012914474 -0.0050761816
0.011591162 0.009438216 -0.002320069 -0.024273463 -0.058240928 -0.049887154 0.026998876 0.024740873
-0.06748641 0.06786079 0.05128918 0.008564891 -0.013257104 -0.042252894 -0.037933193 -0.0007503036
-0.004345114 -0.034104403 -0.033135645 -0.03102559 -0.018841585 -0.05201866 -0.030616293 -0.041658644
-0.055500776 0.031296916 -0.021784665 -0.01819954 -0.031215215 0.017995322 -0.02195232 -0.011125966
-0.021422409 0.011473446 0.0062161754 -0.04861796 0.002104405 -0.0635021 -0.0177291 -0.0937892
0.07682026 0.014676933 -0.061675973 0.011774217 0.047811043 -0.03992886 -0.095036946 -0.0079770135
-0.07199939 -0.039138444 -0.036230907 -0.048198212 -0.08125775 -0.06341202 0.0055101784 -0.021220377
-0.05622018 0.0147937145 -0.01762014 -0.040753417 -0.00052138 -0.033147275 -0.01497578 0.02336861
-0.04217783 0.015729174 0.010451898 -0.014827048 -0.032099325 0.020034866 -0.009761792 -0.014420138
-0.03967946 0.0031291211 0.017885065 -0.033428617 0.005749866 -0.010959075 -0.0074714557 -0.08325044
-0.06791486 0.016343458 -0.0007393658 -0.065565914 -0.05585723 -0.05563674 -0.059607897 -0.03216788
-0.051391687 0.0072095427 -0.05595902 -0.061970256 -0.037293173 -0.08630864 -0.053067226 -0.03152543
-0.10134692 -0.055101987 0.028506706 0.0016788468 0.011628851 -0.020892907 -0.0135070225 0.010519149
-0.041384738 -0.02225141 0.008068722 -0.035096664 -0.07860328 -0.0079205185 -0.029760836 -0.0038508547
0.028885568 -0.00037309455 0.024952514 0.021997828 -0.058570184 -0.005128611 0.023753082 -0.015033584
0.020706832 -0.033062223 0.008592724 -0.042239502 -0.013248483 -0.055735875 -0.0029487615 -0.020692721
-0.03234295 -0.048769616 0.002083704 -0.03739374 -0.009453269 -0.028528152 -0.07192717 -0.050595634
-0.030421276 -0.11463615 0.0033570915 0.053541575 -0.06016927 -0.103647575 -0.012969866 0.08298659
-0.118783094 -0.052869145 0.044040013 0.013026435 -0.01993947 0.043059498 -0.03606073 0.016575636
0.022199312 0.01068292 -0.020233043 -0.019791061 0.024047201 0.026871588 -0.016197208 -0.0022393677
-0.026942244 0.02545165 -0.02715075 0.034503814 0.0010139869 -0.03062605 -0.03326809 -0.036041133
-0.007287539 -0.033688653 -0.045565024 0.015579399 0.0022659532 -0.009116691 -0.017773915 -0.027894147
0.004612833 -0.027246585 0.0020239074 0.053469665 -0.032315597 -0.01578758 -0.01650613 -0.0012380922
-0.041376125 0.050920106 0.030811843 0.0004838724 0.024775593 0.093001045 0.01631578 -0.018719098
-0.050547633 -0.028833514 -0.108590245 0.059234373 0.016346782 0.09866947 -0.027784107 -0.020285089
0.0028651985 -0.07158425 -0.05687479 -0.057554834 0.0031813162 -0.07734662 -0.023457926 0.050961692
0.006138976 0.031384327 0.016473936 0.035029694 0.036288567 0.02024648 0.030908784 0.0033691954
-0.019909594 0.017344281 -0.04120914 -0.027134093 0.0068100234 -0.005843093 -0.036257196 0.011964473
0.00021056244 -0.048837855 -0.0433366 -0.030892579 -0.062889285 -0.10452901 0.050453074 -0.037592076
-0.068800874 0.060588513 0.05107429 -0.017249499 0.058362886 0.00799829 -0.051031176 -0.010461438
00000000: 308f 54bc b2dd 55bc f66f a13c b203 09bc
00000010: 3ae3 e1bc 111d 7dbc a9f0 8ebd 1cc1 2dbc
00000020: 1779 febb c1de 0fbd 73a2 17bd d15a ec3b
00000030: a968 c63c facb c43c 3b97 533c 1956 a6bb
00000040: dbe8 3d3c bfa2 1a3c 4c0c 18bb 24d9 c6bc
00000050: 0a8e 6ebd 7956 4cbd bf2c dd3c 5fad ca3c
00000060: 5136 8abd 99fa 8a3d 9a14 523d c253 0c3c
00000070: 5334 59bc 5f11 2dbd d65f 1bbd 06b0 44ba
00000080: 7561 8ebb 0fb1 0bbd 3eb9 07bd 6129 febc
00000090: ab59 9abc 8511 55bd 05cf fabc 41a2 2abd
000000a0: c854 63bd 3231 003d c175 b2bc 3417 95bc
000000b0: 0db7 ffbc ed6a 933c 5ad5 b3bc af49 36bc
000000c0: 0c7e afbc 1ffb 3b3c 0fb1 cb3b a023 47bd
000000d0: 0fea 093b 640d 82bd 9e3c 91bc 8d14 c0bd
000000e0: f153 9d3d 8577 703c f29f 7cbd a5e8 403c
000000f0: 83d5 433d 728c 23bd bba2 c2bd 05b2 02bc
00000100: 6b74 93bd a24f 20bd dc66 14bd 7d6b 45bd
00000110: 776a a6bd 29de 81bd ba8e b43b 5bd6 adbc
00000120: 2247 66bd 5661 723c 1d58 90bc 0eed 26bd
00000130: 38ad 08ba 70c5 07bd f95c 75bc 876f bf3c
00000140: a9c2 2cbd 78da 803c 703e 2b3c 26ed 72bc
00000150: 957a 03bd 2920 a43c ecef 1fbc 7142 6cbc
00000160: ee86 22bd f111 4d3b b383 923c 72ec 08bd
00000170: 5f69 bc3b b18d 33bc 1dd3 f4bb 357f aabd
00000180: f216 8bbd b7e2 853c 00d2 41ba 6c47 86bd
00000190: 8dca 64bd 5ae3 63bd 6927 74bd 78c2 03bd
000001a0: 1780 52bd 073e ec3b 4935 65bd 86d4 7dbd
000001b0: bac0 18bd 96c2 b0bd 055d 59bd cf20 01bd
000001c0: f98e cfbd 9fb2 61bd e586 e93c c00c dc3a
000001d0: f086 3e3c 9a27 abbc 8f4c 5dbc 8258 2c3c
000001e0: 0b83 29bd 9748 b6bc ac32 043c 85c1 0fbd
000001f0: c2fa a0bd 10c5 01bc ffcc f3bc 9f5e 7cbb
00000200: 6da1 ec3c e79b c3b9 3769 cc3c ca34 b43c
00000210: 4ae7 6fbd e80d a8bb d395 c23c 6c4f 76bc
00000220: 60a1 a93c 416c 07bd 7fc8 0c3c 5403 2dbd
00000230: 2a10 59bc 4d4b 64bd 0240 41bb c883 a9bc
00000240: 0b7a 04bd a6c2 47bd c18e 083b 2e2a 19bd
00000250: e2e1 1abc dfb3 e9bc 8d4e 93bd 5e3d 4fbd
00000260: 0a36 f9bc 5cc6 eabd a602 5c3b 694e 5b3d
00000270: 0d74 76bd 2e45 d4bd 907f 54bc e0f4 a93d
00000280: 8d44 f3bd 518d 58bd 4d63 343d d46c 553c
00000290: 1958 a3bc 285f 303d 6bb4 13bd a1c9 873c
000002a0: 55db b53c 6a07 2f3c c4bf a5bc dd20 a2bc
000002b0: a3fe c43c ce21 dc3c 02b0 84bc 5bc2 12bb
000002c0: fbb5 dcbc fb7f d03c 406b debc df53 0d3d
000002d0: c1e7 843a 7be3 fabc 1f44 08bd de9f 13bd
000002e0: 4fcc eebb 1dfd 09bd 64a2 3abd bc40 7f3c
000002f0: 6380 143b 2c5e 15bc 9a9a 91bc 4482 e4bc
00000300: 3f27 973b 3b34 dfbc 88a3 043b 0203 5b3d
00000310: 5c5d 04bd f454 81bc dd37 87bc 7b47 a2ba
00000320: 037a 29bd 9a91 503d 1e69 fc3c 41b0 fd39
00000330: 2ff6 ca3c 5577 be3d aca8 853c cb58 99bc
00000340: 090b 4fbd 4334 ecbc 9064 debd be9f 723d
00000350: b0e9 853c 3813 ca3d 7f9b e3bc ea2c a6bc
00000360: 0ec6 3b3b c39a 92bd 8af5 68bd 9ebe 6bbd
00000370: a17d 503b e867 9ebd d62a c0bc 35bd 503d
00000380: 7729 c93b da8c 003d 59f4 863c 4c7b 0f3d
00000390: 52a3 143d f2db a53c 6b34 fd3c b8cd 5c3b
000003a0: 7219 a3bc 9815 8e3c eaca 28bd 5148 debc
000003b0: 9e26 df3b 6b77 bfbb 6d82 14bd a306 443c
000003c0: 6dca 5c39 340a 48bd b881 31bd 6f12 fdbc
000003d0: 19cc 80bd 4e13 d6bd e2a7 4e3d 26fa 19bd
000003e0: 79e7 8cbd a92b 783d 4633 513d d24e 8dbc
000003f0: ec0d 6f3d 420b 033c 1106 51bd 7466 2bbc

conv5.bias f4 [64]
-0.060336646 -0.07499301 -0.0671568 -0.037989203 0.03739469 -0.024173735 -0.018714286 -0.028218793
-0.12317496 -0.047300186 -0.011597026 0.023069454 -0.061001007 0.013093288 -0.068806574 0.0019897863
0.062570736 0.021565305 -0.09818333 -0.07069525 -0.0060204435 -0.026947035 0.09744323 -0.01935525
-0.08950208 -0.062136628 0.09681838 -0.01450975 0.03835223 0.058843795 -0.004315124 -0.04435315
-0.037192665 0.05378129 -0.02421926 0.06772988 -0.053796146 -0.034652717 0.07754247 -0.02081284
0.015277338 -0.054784216 -0.09498768 0.03912697 -0.041879904 0.039526302 0.05904525 0.07384443
0.0026230635 -0.015844796 -0.0344403 -0.07317613 -0.15573722 -0.0824848 -0.027884923 -0.094742976
-0.041171603 -0.059517678 -0.017819019 -0.06444773 -0.058270067 0.008924331 0.030196536 0.0015241258
00000000: 8f23 77bd ef95 99bd 8189 89bd 919a 1bbd
00000010: 2d2b 193d ff07 c6bc b44e 99bc 192b e7bc
00000020: 2743 fcbd d7bd 41bd 7401 3ebc 27fc bc3c
00000030: 31dc 79bd 3b85 563c 76ea 8cbd 1367 023b
00000040: 1625 803d b9a9 b03c 5714 c9bd acc8 90bd
00000050: 2447 c5bb 07c0 dcbc 5190 c73d e78e 9ebc
00000060: de4c b7bd fa82 7ebd b748 c63d 4dba 6dbc
00000070: 3a17 1d3d 3106 713d e265 8dbb a6ab 35bd
00000080: 5657 18bd c549 5c3d 7867 c6bc f7b5 8a3d
00000090: 5959 5cbd 02f0 0dbd 96ce 9e3d b07f aabc
000000a0: cd4d 7a3c 6a65 60bd e788 c2bd 9a43 203d
000000b0: 438a 2bbd 55e6 213d 6fd9 713d c03b 973d
000000c0: b4e7 2b3b f2cc 81bc 4611 0dbd 5edd 95bd
000000d0: 9479 1fbe caed a8bd ec6e e4bc 9b08 c2bd
000000e0: 8ea3 28bd cfc8 73bd 31f9 91bc 2cfd 83bd
000000f0: 98ac 6ebd 5b37 123c ba5e f73c 2dc5 c73a

conv6.weight f4 [64, 64, 3, 3]
-0.022741765 -0.008412333 0.01741315 0.0025645613 -0.044648767 0.016777446 -0.06433932 0.01052527
0.024413707 0.035957005 0.03136817 0.010242979 0.027787333 0.02916646 0.002793619 0.0023526305
-0.05530684 -0.06576846 0.005992636 -0.0348784 0.021890912 -0.019702561 0.017451461 -0.023441583
-0.019224478 0.02453834 -0.03276503 0.01713821 -0.034769874 -0.016634788 -0.025597028 -0.024361175
-0.023536837 -0.039549958 -0.0046485765 -0.016345482 -0.059178505 -0.053389143 -0.013165573 0.02658197
-0.02268406 -0.016624955 -0.08609004 0.0063956818 -0.019572169 -0.0025727402 -0.02402428 0.0023165147
-0.031853 -0.008733338 -0.022965804 0.011586639 -0.014327431 0.0070227585 0.03015779 -0.022087092
-0.018797401 0.006971434 0.042563446 -0.016458258 -0.022722958 0.013524158 -0.03139147 0.04015934
-0.016152084 0.017166987 0.021357909 0.018042354 0.012171878 0.0054948516 -0.0033507426 0.022180343
0.03694854 0.0073107467 0.0049545937 0.016033763 0.008085181 -0.017422697 -0.036431033 -0.008620676
0.033239834 0.04584509 0.032045458 -0.021988345 0.014449913 0.03430307 0.035902597 0.023525158
0.01682662 -0.016890844 -0.0038296867 -0.0055240304 0.02182216 -0.044603832 -0.0032887992 -0.030387338
-0.002684007 -0.031420905 -0.014123735 0.010580629 -0.02929321 -0.0061152373 0.000116911826 -0.022256922
-0.018211864 -0.011219212 -0.017556852 0.030077945 -0.0010839211 -0.025906004 0.0045995247 0.0296858
-0.018646607 -0.03208681 -0.019643776 0.01083242 -0.017510662 0.03189639 -0.020088973 0.0016440088
0.03126667 0.018800007 0.032762155 -0.009462611 0.0310254 -0.03959029 -0.03728488 -0.041400325
-0.027774323 -0.035241466 -0.049042456 -0.0055779144 -0.013514673 0.018993719 0.03744738 0.0064397333
-0.023170853 -0.053025026 -0.057588056 -0.006272347 0.012059755 -0.0063052243 0.009431308 0.017363634
-0.05879323 -0.02426736 -0.027538462 0.010657698 -0.036902674 -0.027497834 -0.041055102 0.036400273
-0.0624639 0.010711034 -0.023004148 0.027397696 -0.027630698 -0.03207378 0.021492776 -0.008905954
0.02540251 0.035211045 0.0015244328 -0.03656533 -0.03687315 0.02772802 -0.030309932 0.037022363
0.0030121377 -0.010114802 0.033276618 -0.08292443 -0.008580591 -0.07324804 -0.09764421 0.019667683
-0.027169047 -0.100563735 -0.023786616 0.033632558 -0.015414268 0.032093868 0.031823374 -0.0137740895
-0.012233713 0.02948983 -0.00563652 0.02895442 0.037829775 -0.03648419 0.027325032 0.02472881
0.014023009 -0.024531724 -0.008025285 0.03305946 0.03488673 -0.015685726 -0.051521868 -0.046865586
-0.004284433 -0.035655055 -0.04846319 -0.051022865 -0.0336759 0.012750932 -0.04565095 -0.044291053
0.022915777 -0.0055894055 -0.004951773 0.025670718 -0.03178619 -0.0035344374 0.031079236 -0.008020968
0.024156284 -0.0050420747 0.040395174 -0.027869694 0.011752834 -0.003525382 -0.004053546 0.01207644
-0.0073963176 0.025192376 -0.0051212106 -0.023744162 -0.0022089286 -0.022854999 -0.02650272 0.014156797
-0.015545379 -0.03246633 -0.03281629 0.00090806885 -0.014909339 -0.0033043798 -0.013559482 -0.010263526
-0.02530034 -0.03990905 0.020855686 0.037231896 0.02941538 0.011982641 -0.012645157 -0.0004884911
0.008743846 -0.04103278 -0.0044222153 0.010883383 -0.048633702 -0.032814633 -0.011092894 0.03435395
00000000: f04c babc e2d3 09bc 06a6 8e3c 3312 283b
00000010: a0e1 36bd db70 893c 55c4 83bd 2f72 2c3c
00000020: 41ff c73c a747 133d e97b 003d 2bd2 273c
00000030: 43a2 e33c 80ee ee3c 2615 373b 972e 1a3b
00000040: 6d89 62bd 9db1 86bd e05d c43b a7dc 0ebd
00000050: 9254 b33c 4467 a1bc 5ef6 8e3c 9008 c0bc
00000060: a77c 9dbc a104 c93c a034 06bd 6e65 8c3c
00000070: db6a 0ebd ae45 88bc dcb0 d1bc 1691 c7bc
00000080: 53d0 c0bc 23ff 21bd 1653 98bb f6e6 85bc
00000090: 2965 72bd 93ae 5abd 6ab4 57bc 6ec2 d93c
000000a0: ecd3 b9bc 0f31 88bc fa4f b0bd de92 d13b
000000b0: d055 a0bc 6b9b 28bb 91ce c4bc abd0 173b
000000c0: 4b78 02bd 4616 0fbc c822 bcbc e3d5 3d3c
000000d0: 9abd 6abc 2b1f e63b 780d f73c fdef b4bc
000000e0: 02fd 99bc a170 e43b 0257 2e3d 78d3 86bc
000000f0: 7f25 babc 6e94 5d3c 5894 00bd 1f7e 243d
00000100: 6051 84bc c8a1 8c3c c8f6 ae3c 8fcd 933c
00000110: 8e6c 473c 280e b43b 2298 5bbb 8db3 b53c
00000120: 5a57 173d fd8e ef3b 255a a23b 3d59 833c
00000130: b577 043c 0bba 8ebc b538 15bd bc3d 0dbc
00000140: 7e26 083d 10c8 3b3d 1942 033d e720 b4bc
00000150: 54bf 6c3c 6081 0c3d 9a0e 133d d5b7 c03c
00000160: fbd7 893c ab5e 8abc 7bfb 7abb ed02 b5bb
00000170: 63c4 b23c 82b2 36bd e588 57bb deee f8bc
00000180: 2ae6 2fbb 35b3 00bd 3d67 67bc 605a 2d3c
00000190: 50f8 efbc 5462 c8bb 8f2e f538 2654 b6bc
000001a0: 0c31 95bc c9d0 37bc 63d3 8fbc 0666 f63c
000001b0: 5b12 8eba d438 d4bc 9cb7 963b a32f f33c
000001c0: c5c0 98bc 756d 03bd fceb a0bc 767a 313c
000001d0: 8572 8fbc caa5 023d a191 a4bc c87b d73a
000001e0: 7b11 003d 7902 9a3c 9c31 063d 1109 1bbc
000001f0: fb28 fe3c 6e29 22bd 08b8 18bd 6393 29bd
00000200: fa86 e3bc 5b59 10bd bee0 48bd f0c6 b6bb
00000210: a66c 5dbc b798 9b3c 6d62 193d 6604 d33b
00000220: cdd0 bdbc c530 59bd 74e1 6bbd 4388 cdbb
00000230: 4796 453c 0e9c cebb c685 1a3c 2e3e 8e3c
00000240: 2cd1 70bd 58cc c6bc 5798 e1bc a09d 2e3c
00000250: 4227 17bd 2343 e1bc 6529 28bd 7418 153d
00000260: 25da 7fbd 557d 2f3c 3273 bcbc 2271 e03c
00000270: c659 e2bc cc5f 03bd 9e11 b03c 47ea 11bc
00000280: ed18 d03c 7539 103d 7acf c73a 87c5 15bd
00000290: 4d08 17bd df25 e33c 894c f8bc c3a4 173d
000002a0: 4967 453b 8eb8 25bc 104d 083d 49d4 a9bd
000002b0: 9b95 0cbc 1203 96bd b0f9 c7bd 1f1e a13c
000002c0: 9f91 debc 5cf4 cdbd 26dc c2bc 4bc2 093d
000002d0: 208c 7cbc dc74 033d 3a59 023d b8ac 61bc
000002e0: e96f 48bc a894 f13c 8fb2 b8bb d231 ed3c
000002f0: 65f3 1a3d 7270 15bd bfd8 df3c 1394 ca3c
00000300: c3c0 653c c1f6 c8bc 7c7c 03bc 5b69 073d
00000310: 63e5 0e3d 5a7f 80bc 9808 53bd 21f6 3fbd
00000320: 6e64 8cbb 090b 12bd 5781 46bd 5afd 50bd
00000330: beef 09bd 49e9 503c 7efc 3abd 896a 35bd
00000340: deb9 bb3c 5527 b7bb 7c42 a2bb 664b d23c
00000350: 3c32 02bd 05a2 67bb e299 fe3c 616a 03bc
00000360: 66e3 c53c fd37 a5bb 6975 253d fc4e e4bc
00000370: f58e 403c 180a 67bb 9cd3 84bb 43dc 453c
00000380: cf5c f2bb 3e60 ce3c d4cf a7bb 1e83 c2bc
00000390: acc3 10bb 683a bbbc 3b1c d9bc e9f1 673c
000003a0: 0cb2 7ebc 6afb 04bd 606a 06bd 780b 6e3a
000003b0: 4d46 74bc 4b8e 58bb 9728 5ebc 5928 28bc
000003c0: a942 cfbc ac77 23bd 8bd9 aa3c 7980 183d
000003d0: 86f8 f03c d752 443c a22d 4fbc 150e 00ba
000003e0: 5942 0f3c fd11 28bd 3be8 90bb 3850 323c
000003f0: 2234 47bd a368 06bd f8be 35bc bab6 0c3d

conv6.bias f4 [64]
-0.023091372 0.0034851213 0.056579765 -0.06151063 -0.03144055 -0.019396182 -0.03983156 -0.04229764
0.015449604 0.022618843 -0.024829172 -0.02156762 -0.05671611 -0.04984307 -0.015364233 -0.06562274
-0.04029266 -0.017900024 -0.032634728 0.0024229053 -0.005578494 -0.024921466 -0.010985988 0.0030369605
-0.044961214 -0.08082927 -0.0034043826 0.02182415 -0.041277226 0.007352182 -0.018186703 0.005513611
0.018021397 -0.06931012 -0.06132094 0.002138917 0.04660545 -0.018534457 0.022823006 0.040859114
-0.00052993436 -0.075154 0.015602655 -0.042838495 -0.044288624 0.022769405 -0.003117817 -0.0298405
0.017061232 -0.032594137 0.02238005 -0.03544409 -0.0057315356 0.015284695 -0.008762953 -0.013506727
-0.066681415 0.018955003 -0.02635491 0.030794622 -0.039648842 -0.02922612 0.008651839 -0.060674045
00000000: 1e2a bdbc a266 643b 2fc0 673d 92f2 7bbd
00000010: cec7 00bd bee4 9ebc 6b26 23bd 4a40 2dbd
00000020: 5620 7d3c 274b b93c 8c66 cbbc 94ae b0bc
00000030: 274f 68bd 3f28 4cbd 44ba 7bbc 3765 86bd
00000040: eb09 25bd 12a3 92bc feab 05bd 9bc9 1e3b
00000050: cdcb b6bb 1a28 ccbc 93fe 33bc be07 473b
00000060: 4029 38bd d189 a5bd 101c 5fbb 8fc8 b23c
00000070: 4f12 29bd 93ea f03b 48fc 94bc 85ab b43b
00000080: 9ca1 933c 77f2 8dbd aa2b 7bbd 132d 0c3b
00000090: 5be5 3e3d 93d5 97bc 50f7 ba3c e35b 273d
000000a0: 4beb 0aba 57ea 99bd 47a2 7f3c 6b77 2fbd
000000b0: fd67 35bd e786 ba3c 4a54 4cbb 1074 f4bc
000000c0: ffc3 8b3c 6e81 05bd 5e56 b73c d22d 11bd
000000d0: 9bcf bbbb a86c 7a3c 7d92 0fbc 524b 5dbc
000000e0: 4490 88bd 8647 9b3c 41e6 d7bc 0145 fc3c
000000f0: d366 22bd 9e6b efbc 71c0 0d3c 5985 78bd

conv7.weight f4 [1, 64, 1, 1]
0.01108481 -0.032515123 -0.01713395 0.004393167 -0.05887539 -0.012331798 0.039167285 0.0052312473
0.0012365826 0.07169383 0.004824442 0.0014011106 0.050226174 -0.11705977 -0.14951703 -0.073270544
0.0026230346 0.08175669 0.047304757 -0.08249297 0.008582811 -0.07667529 0.04475447 -0.14289168
0.05493724 -0.111245796 0.0047501246 0.0050476976 0.007866155 -0.082868144 0.032234456 -0.0013380965
-0.07167018 0.0049698404 0.0012292205 0.014896093 -0.11287838 -0.16773254 -0.00083316304 -0.1069577
0.026529156 0.006820018 -0.0109862145 -0.037010215 0.0109756915 -0.044909522 0.021618895 -0.029956806
0.005538385 -0.06886562 0.05381906 -0.1017376 0.07005706 -0.11250978 0.034096908 -0.030167043
0.022989951 -0.11069264 -0.012174781 -0.04560472 -0.008686949 0.018998796 -0.091636844 0.07001489
00000000: 109d 353c 942e 05bd 7f5c 8cbc 8ef4 8f3b
00000010: 5227 71bd 4f0b 4abc e06d 203d e26a ab3b
00000020: d414 a23a 37d4 923d 5a16 9e3b 78a5 b73a
00000030: f6b9 4d3d 08bd efbd fe1a 19be de0e 96bd
00000040: 38e7 2b3b 0d70 a73d a2c2 413d 13f2 a8bd
00000050: eb9e 0c3c ef07 9dbd 7750 373d 3252 12be
00000060: df05 613d d6d4 e3bd efa6 9b3b 2867 a53b
00000070: 0ce1 003c c6b6 a9bd 4708 043d 1163 afba
00000080: d1c7 92bd 0bda a23b cc1d a13a be0e 743c
00000090: c82c e7bd 14c2 2bbe a068 5aba a30c dbbd
000000a0: ac53 d93c 757a df3b 86ff 33bc 0698 17bd
000000b0: 63d3 333c 0cf3 37bd 1c1a b13c fa67 f5bc
000000c0: 577b b53b 6b09 8dbd 6071 5c3d ce5b d0bd
000000d0: 137a 8f3d 876b e6bd 33a9 0b3d e020 f7bc
000000e0: 6c55 bc3c d3b2 e2bd bc78 47bc 04cc 3abd
000000f0: b453 0ebc 5da3 9b3c 19ac bbbd f763 8f3d
